model/10gmodel.pth (torch, 17216 bytes, 4 tensors)

linear1.weight f4 [256, 11]
000000 d0 e4 5a be 7a ec 26 be 7c d8 72 be a4 47 8a 3e
       -0.21376348 -0.16301146 -0.23715395 0.27007782
000010 63 36 54 3e 55 f4 5b be dc 31 05 be 04 95 27 3c
       0.20723872 -0.21479924 -0.13007301 0.010228399
000020 b2 0f 3d bd f0 d6 92 3e 20 77 7c be b6 47 92 bc
       -0.046157546 0.2867961 -0.24654818 -0.01785646
000030 72 a5 14 be 41 59 a5 bd 95 96 9e 3d d0 1b 9f 3d
       -0.14516237 -0.080736645 0.07743565 0.07768977
000040 34 df 16 3c 88 bc 84 3e ec fb 52 3d 1b e6 47 bd
       0.009208489 0.25925088 0.051509783 -0.04880343
000050 ad ce 29 be 26 01 9e 3c f6 21 54 3c 85 23 92 3e
       -0.16582747 0.019287657 0.01294755 0.28542724
000060 eb e7 5f 3e 6b 83 30 be a5 6e 91 3e 99 18 84 3e
       0.21865813 -0.17237632 0.28404728 0.25800017
000070 d6 e1 79 bd 8e 5c b7 bd d5 ee 85 3d 64 62 86 bd
       -0.06100639 -0.089532 0.06539694 -0.06561735
000080 e9 af 38 3e d6 ac 67 be 6a 6d 91 3e af c2 83 3e
       0.18035854 -0.22624525 0.2840379 0.2573447
000090 1d 74 95 3e c7 81 4b be 9f 85 d9 bd e4 8c 4c be
       0.2919015 -0.19873725 -0.10621189 -0.1997562
0000a0 c6 74 20 be b1 51 25 3e d7 03 17 be e2 e2 33 be
       -0.15669546 0.16144444 -0.14747559 -0.17567018
0000b0 bc fa d1 3d 8a a5 08 3e 05 fd 4f 3d 93 11 5e 3e
       0.10252902 0.13344398 0.050778408 0.21686392
0000c0 1e 51 06 3d d3 13 30 be 77 fb c4 3d 32 15 3b be
       0.032792203 -0.17195062 0.096182756 -0.18269804
0000d0 9d a7 89 bd 1f 09 89 be d9 2e 10 3d d4 21 02 be
       -0.06721423 -0.2676477 0.035200927 -0.12708217
0000e0 60 09 44 3e c2 4b 95 be ad 26 2e 3d dc 44 02 3e
       0.19144201 -0.2915936 0.042517353 0.1272158
0000f0 ed f5 98 be 25 23 77 be 4e c2 1c 3e 01 49 27 be
       -0.29875126 -0.241345 0.15308496 -0.16336443
000100 63 ca ab bd d3 ca 81 3d 64 63 88 bc a4 8f d4 bd
       -0.083882116 0.06337514 -0.016648956 -0.1037896
000110 e1 02 6c bd 31 33 0f be 24 1f 95 3e 0f ed 76 3d
       -0.057619933 -0.13984372 0.2912532 0.06028467
000120 93 09 9b 3e 5b c6 14 be ec ed 0f 3e eb 00 53 be
       0.30280742 -0.14528792 0.14055604 -0.20605819
000130 36 cd 70 be 67 7f 34 3e 1b 43 6b 3e 70 70 45 be
       -0.23515782 0.17626725 0.22974817 -0.19281173
000140 59 e4 24 bd 57 cd f9 3d 41 dd 8a be a9 5c 87 3d
       -0.04025683 0.121973686 -0.27121928 0.066094704
000150 e1 49 8f be d9 24 6c be dd a4 2a 3d 29 63 4d 3e
       -0.27986053 -0.23060931 0.041661132 0.20057358
000160 67 26 42 3b 2d d9 80 3e b2 c2 a0 3d 44 95 78 3e
       0.002962494 0.25165692 0.07849635 0.2427569
000170 dc 8d 0b 3e 12 c0 c3 bd 5f 6c 96 be d0 74 95 3e
       0.13628334 -0.09558119 -0.29379556 0.29190683
000180 76 49 32 3c e0 8b 95 3e d6 0c 37 be bb 79 59 bd
       0.010881772 0.2920828 -0.1787599 -0.053094607
000190 28 63 94 be a9 e7 b7 3d 82 69 7b be c1 a0 ba bd
       -0.289819 0.089797325 -0.24551967 -0.091126926
0001a0 a1 a2 99 be 49 7e 35 be ef 41 3d bd 1f 38 f8 39
       -0.30006889 -0.17723955 -0.046205457 0.0004734406
0001b0 e8 b3 21 be 6e fc f3 bd f4 1d 7d bc 20 2d 7c 3e
       -0.15791285 -0.119133815 -0.015449036 0.24626589
0001c0 ec 2e 7c be 46 e6 89 be 71 e5 83 be 38 6d 5b 3e
       -0.24627274 -0.26933497 -0.25760987 0.21428382
0001d0 48 87 ef 3d 44 af 99 3d 17 57 00 3b 47 a7 6c 3e
       0.11695725 0.075041324 0.001958316 0.23110686
0001e0 67 d0 14 be d1 b8 01 be e9 db 8b be af f2 d3 3d
       -0.14532624 -0.12668158 -0.27316216 0.103490226
0001f0 18 64 83 be 3b 69 86 bd 51 06 1f 3e ff 45 e0 bd
       -0.25662303 -0.0656304 0.15529753 -0.10950851
000200 6d 48 db bd 94 d1 99 be d6 7a 29 be db c4 50 be
       -0.107071735 -0.30042708 -0.16550764 -0.20387594
000210 77 3f 50 3e 91 36 74 bd e6 6b 9f 3c e6 bb 96 be
       0.2033671 -0.05962235 0.01946063 -0.2944023
000220 9d 71 85 3e 4a 43 d2 3d e8 ad 7a 3d ee 6a 5a 3e
       0.26063243 0.102667406 0.061201006 0.21329853
000230 1e bd 90 be cb 7d 2f 3d 3c 5b 80 3c 24 a1 73 bd
       -0.28269285 0.042844575 0.015668504 -0.059479848
000240 1c 6a 17 be 6c 2c 91 be f0 ea 65 3e aa 65 16 3e
       -0.14786571 -0.28354204 0.22452903 0.1468722
000250 bb e3 c4 3b a7 77 2f 3e e3 77 22 3c ea bc 8a be
       0.006008593 0.17135487 0.0099162785 -0.27097255
000260 9c b9 c5 3c ad 02 42 3e e1 dc 69 3e eb cd 66 3e
       0.024136357 0.18946333 0.22838165 0.22539489
000270 bf 73 dd bd c3 82 31 be 2e ef 4c 3e 30 27 14 bd
       -0.108130924 -0.17335038 0.20013115 -0.036170185
000280 c8 58 87 be 38 08 5c be 75 c7 cc 3d 6d 32 88 3e
       -0.26434922 -0.2148751 0.09998981 0.26600972
000290 90 b1 cb 3d 91 37 85 3e 76 df 65 be fa ce 5b 3e
       0.09945977 0.26018956 -0.22448525 0.21465674
0002a0 ce e3 8d be 55 5d f2 bd 0b 29 74 be c2 23 02 3e
       -0.27712864 -0.11834208 -0.23843782 0.12708953
0002b0 95 76 ec bd 40 e3 74 be 69 f1 3b bd 15 ac 98 3d
       -0.11546055 -0.23914814 -0.045884524 0.07454697
0002c0 d1 57 81 3e c8 d7 8b be d3 86 6a be 1a 20 27 be
       0.2526231 -0.27313066 -0.22902994 -0.1632084
0002d0 e2 36 93 3e 39 c5 67 be 15 f4 5a be bf ac 91 3d
       0.2875281 -0.22633828 -0.21382172 0.07113027
0002e0 c4 e4 3b 3e f3 2d 30 3d 64 ad ed 3d 18 ec 92 3e
       0.18348986 0.04301257 0.11605337 0.2869575
0002f0 c8 f2 98 be 69 e7 78 bd a0 a5 72 be 68 60 7a 3d
       -0.29872727 -0.060767565 -0.23695993 0.061127096
000300 d6 27 9a 3e f4 88 52 be 32 d4 80 3e 3a 2e 8d 3e
       0.30108517 -0.20560056 0.25161892 0.2757433
000310 18 ac 55 be d4 4b f8 3d 0e a7 8c 3d 46 eb be bd
       -0.2086643 0.12123838 0.06867801 -0.093222186
000320 24 1a 92 be 21 ac 4e be 38 8e 94 be 3c ed 8f 3e
       -0.2853557 -0.2018285 -0.29014754 0.28110683
000330 14 25 9a be db 3d 62 bc ad 45 4c bd 8c 7f 6f 3b
       -0.30106413 -0.013808693 -0.049871136 0.003654453
000340 15 7b 0e be 95 66 64 3e c8 85 91 3d 67 f1 7f 3e
       -0.1391414 0.22304757 0.07105595 0.24994431
000350 c1 13 d4 bb b5 64 98 3e b9 dd 8e be 7c c6 b5 3d
       -0.0064720814 0.29764333 -0.27903536 0.088757485
000360 df 7f 88 be ec 7b 89 be 56 cc a6 3d 9d 1c d5 bd
       -0.26660058 -0.26852357 0.08144443 -0.10405848
000370 1c e3 4f be 9e ed 4b 3e 63 06 c8 bd 8f 37 84 be
       -0.20301479 0.19914863 -0.09766843 -0.25823638
000380 bd fb 3c be 25 ca 99 b9 48 1d 25 3e 30 60 37 bd
       -0.18455406 -0.00029333043 0.16124451 -0.044769466
000390 16 b4 d5 bd fa 24 84 be 08 bf 85 be b1 84 3d 3e
       -0.10434739 -0.2580946 -0.26122308 0.18507649
0003a0 7f 51 c4 bd a9 2c 98 3d 1a b4 07 3d 85 9e bf 3d
       -0.09585857 0.07430393 0.033130743 0.09356407
0003b0 29 46 8c 3e 0c f2 47 be 0e 95 9f bc 90 77 36 3e
       0.27397278 -0.19525927 -0.019480255 0.17819047
0003c0 0b f6 c4 bd 4d 4e 0b be 12 27 55 bd 0e bf c3 3d
       -0.096172415 -0.13604088 -0.052039213 0.09557925
0003d0 ee 75 f8 3c da a6 9a bd 1c 52 0d be 51 f6 5c bd
       0.03032967 -0.07551356 -0.13800853 -0.053945843
0003e0 68 46 85 be 6c 88 8d be 87 16 9a 3e db ba 24 3e
       -0.26030278 -0.27643144 0.30095312 0.16086905
0003f0 1c e9 a3 3c 85 e5 96 3d 20 b6 b1 bd 21 c3 58 3d
       0.020008616 0.07367996 -0.08677316 0.052920464

linear1.bias f4 [256]
000000 eb a6 0b 3e ff 6c 42 3d 09 ea 51 bd 79 94 bc bd
       0.13637893 0.047467228 -0.051248584 -0.092080064
000010 51 3a fa 3d 61 5f 94 be 9d fd f4 3b b4 3c 1c 3e
       0.12218154 -0.28979018 0.007476522 0.15257531
000020 a3 28 16 3e 61 a3 08 3e a5 31 25 be 3e 52 ef 3d
       0.14663939 0.13343574 -0.16132219 0.11685608
000030 1e 2e 5c be 6f b4 b7 bd 06 dc 30 be a9 b1 85 3e
       -0.21501967 -0.08969962 -0.17271432 0.26112106
000040 39 81 23 3c dc 78 3a bc 48 15 54 3e 95 df 0f 3e
       0.00997954 -0.011381354 0.20711243 0.14050134
000050 a7 b6 92 be c1 e4 99 be 79 ef 97 be 60 d3 25 be
       -0.28654978 -0.30057338 -0.2967489 -0.16193914
000060 16 d6 04 3e 47 af 63 3d be 9b d2 bd f7 40 45 3e
       0.12972292 0.05558708 -0.10283612 0.19263063
000070 0d b6 8d ba 88 cf 42 bd a9 ef 00 3e ad a7 1d be
       -0.0010811702 -0.0475612 0.12591423 -0.15395994
000080 69 b7 97 be 67 0e 5b bc 62 fd 5e 3e 7a 47 9a 3e
       -0.29632118 -0.013370133 0.21776345 0.30132657
000090 ca d2 d7 3d 66 2d 90 be f0 f6 3a 3e 7b ad 0d 3e
       0.10538252 -0.28159636 0.18258262 0.13835709
0000a0 cf 02 51 be e4 59 2d be aa 85 ae bd cb 61 8e 3e
       -0.20411228 -0.16928822 -0.08521588 0.27808985
0000b0 cb d1 61 3e 50 a7 88 be c3 9a 96 3e 4c 92 50 3d
       0.22052686 -0.2669015 0.2941495 0.05092077
0000c0 3d 73 92 3e 71 79 20 be 71 c3 af 3d 19 0c 61 3e
       0.28603545 -0.15671326 0.08582199 0.21977271
0000d0 11 ea fe 3d 24 a6 6e 3e 80 22 80 3d 4c 20 79 3e
       0.124469884 0.23305565 0.0625658 0.24328727
0000e0 7f a3 8b be 71 61 f7 bd af 9e f1 bd 96 bd 96 3e
       -0.27273175 -0.12079132 -0.117978446 0.29441518
0000f0 a2 68 50 be 06 48 da bb ce 76 ef bc 21 b3 a6 bc
       -0.20352414 -0.006661418 -0.029231455 -0.020349087
000100 d7 c0 0a be 1e 27 25 bc d4 26 8a 3e 8b ad be bd
       -0.13550125 -0.010080127 0.26982749 -0.093104444
000110 20 df 7f 3e eb 71 95 be e7 7b 3c bd eb 8f 04 be
       0.24987459 -0.29188475 -0.0460166 -0.12945525
000120 54 53 b9 3d 0e 83 69 3e 95 4c 1d be 2c db 37 be
       0.09049097 0.228039 -0.15361245 -0.17954701
000130 1a 27 51 be 83 c9 b7 bd 7b e8 df 3d f6 07 0a be
       -0.20425072 -0.08973982 0.10933014 -0.134796
000140 e7 cd 0b 3e cb f3 5a 3e 49 6b 0e 3e da 12 96 3e
       0.13652764 0.21382062 0.13908114 0.29311258
000150 98 92 81 3e 69 3f b6 bd 68 20 c7 3c ab aa 71 3d
       0.25307155 -0.08898813 0.024307445 0.059000652
000160 3e a2 64 3e 17 b9 0a 3e 2f 0c 23 3e 56 57 8a bd
       0.22327515 0.13547169 0.15922616 -0.06754939
000170 bc bb f2 bc ea e7 29 be 89 14 8c 3e 15 50 41 3e
       -0.029630534 -0.16592374 0.27359417 0.18878205
000180 33 78 b0 bd ba a0 46 bc b5 d4 94 3d b1 ff e7 bc
       -0.08616676 -0.012123281 0.07267133 -0.028320165
000190 08 c1 e1 3d 3c 43 34 be cb 68 bd bd 5f 89 1f 3e
       0.11023146 -0.17603773 -0.09248503 0.15579747
0001a0 f8 c3 4d 3e 0f 93 28 3e cb 66 f1 bc 7c ce eb bc
       0.20094287 0.16462348 -0.02946796 -0.028784983
0001b0 69 4a fd bd 60 ad 80 3e a1 f4 15 be 9f 85 52 be
       -0.12367708 0.25132275 -0.146441 -0.20558785
0001c0 c6 b7 e4 3d 86 e1 22 be 91 67 7c bb 87 b9 80 be
       0.111678645 -0.15906343 -0.0038513879 -0.25141546
0001d0 2e 4c d9 3c 8d 47 65 be 27 87 67 be da f1 9b be
       0.026525583 -0.22390576 -0.2261015 -0.30457956
0001e0 d0 d1 fb bd a1 b9 47 3e ec de df bd 1c f3 75 be
       -0.12295878 0.19504406 -0.10931191 -0.2401852
0001f0 6d db fe bd 4a 80 54 3c 34 d8 a3 bc 26 91 74 be
       -0.12444196 0.01297004 -0.020000555 -0.23883495
000200 e1 2f ae 3d 0b 83 ef bd 02 b0 57 be d2 58 88 3e
       0.08505226 -0.11694916 -0.21063235 0.26630265
000210 cb 03 6e 3d 4d 64 98 be a8 59 6c bd 4b 55 9b 3d
       0.058109086 -0.29764023 -0.05770269 0.07584628
000220 17 5e 28 be 7e 11 a4 bd 56 79 f5 bd 29 b2 32 3e
       -0.16442142 -0.08011149 -0.119860336 0.17450775
000230 c4 ba 91 bd d3 54 da bc 2d 74 34 be dc 1e 7b 3e
       -0.07115701 -0.026651775 -0.17622443 0.2452349
000240 68 39 7c 3e e0 e4 ff 3c 7c 10 4e 3e 09 e4 63 be
       0.24631274 0.031237066 0.20123476 -0.22254957
000250 cb ba 69 be 17 eb 74 be bb d1 29 be 36 1e 19 3e
       -0.22825162 -0.23917805 -0.16583912 0.14952931
000260 2b dc d1 3c 65 e6 c7 bd c1 e9 34 3e 40 ab 42 3e
       0.02561768 -0.09760741 0.17667295 0.19010639
000270 db 41 50 be 94 ce 8d 3e 3c 56 bc bd 74 45 68 be
       -0.20337622 0.2769667 -0.091961354 -0.22682744
000280 c5 8b 23 bd d4 71 97 be 54 e0 81 3e f1 9d 50 bc
       -0.039928216 -0.2957903 0.2536646 -0.012732969
000290 52 78 cd 3d 55 e2 30 bd 16 9b eb 3d 7e 4d 1d 3d
       0.10032715 -0.043184597 0.1150419 0.03840398
0002a0 1e 82 1c be fd 53 13 3e af 59 4f 3e 53 c9 06 3d
       -0.15284011 0.14387508 0.20249055 0.03290684
0002b0 d0 14 2c be 97 f4 5d be 33 cf 9a 3e 5a 6c 82 3e
       -0.16804814 -0.21675335 0.30236205 0.2547329
0002c0 97 77 8e bd 2a 60 8b be fb 60 33 be 98 09 4e 3d
       -0.06956404 -0.27221805 -0.17517464 0.050302118
0002d0 be 31 8e be f3 19 11 3d 22 cd ad bd 5c b3 fb 3d
       -0.27772325 0.035425138 -0.084863916 0.122900695
0002e0 7a 5f 54 be cb 93 32 be b7 f6 7a bd eb c7 34 be
       -0.20739546 -0.17439191 -0.06127044 -0.17654388
0002f0 ca 54 2d 3d ab f2 8b bd f2 93 0d be 83 fa 8f 3e
       0.04231719 -0.068333946 -0.13825968 0.28120813
000300 3b 0c 01 be 60 b3 14 be 42 3c 60 be 55 99 48 3e
       -0.12602322 -0.14521551 -0.21897987 0.19589742
000310 52 87 28 be 08 08 e4 3d a2 d2 e6 3d fb 0a 7d 3e
       -0.1645787 0.11134344 0.11270644 0.2471122
000320 31 3f 4a bd c8 1d 90 be de 58 4b 3d 2d b5 ca bd
       -0.04937667 -0.2814772 0.049645297 -0.09897838
000330 09 c3 a0 3d c2 ea 19 3e a7 da 81 3e 3c 46 ae 3d
       0.078497 0.15030959 0.2536213 0.0850949
000340 5a 7e a5 bd cd 2d e2 bd 5c 89 69 bc f7 d0 87 be
       -0.0808074 -0.11043892 -0.01425394 -0.26526615
000350 e4 e9 16 3e 5f 95 4d be 70 85 69 be 0e c6 82 3e
       0.1473766 -0.20076512 -0.22804809 0.2554173
000360 78 d7 86 be c6 2b 8c bd e9 96 71 be 68 d7 00 be
       -0.26336265 -0.068442866 -0.23592724 -0.12582171
000370 ab 14 71 bd 95 ba 54 3e 3d 3c fd bd 14 24 08 3d
       -0.0588576 0.207743 -0.12365005 0.03323753
000380 51 7a 9b bc db f6 75 3e 1d c4 65 bd e5 21 c8 bc
       -0.018979223 0.24019949 -0.05609523 -0.024430225
000390 14 1c fd 3d 20 16 19 be 00 d4 74 3d 10 d5 03 3e
       0.12358871 -0.14949846 0.05977249 0.12874246
0003a0 02 06 0a be e3 8a 9c 3d a3 9d eb bc f6 15 5c 3e
       -0.13478854 0.07643678 -0.02876169 0.21492752
0003b0 8c 12 ae bd 19 ec 97 bd 86 42 53 3d a0 b1 7b be
       -0.08499631 -0.07418079 0.051577114 -0.24579477
0003c0 d6 7a 7b be 94 9d 83 be d6 33 16 be bb 34 01 be
       -0.24558577 -0.2570616 -0.14668211 -0.12617771
0003d0 04 c1 90 be b6 ba 96 be 2c 8e fa 3c b4 8c 6e bd
       -0.2827226 -0.29439324 0.030585371 -0.058239654
0003e0 30 9c 20 be 0b 35 41 3e ce f1 4d 3e 0c 1b ef 3c
       -0.15684581 0.1886789 0.20111772 0.029187702
0003f0 2d f5 29 3e 32 b8 84 be b4 4a 97 3d 28 b3 d8 bc
       0.16597433 -0.2592178 0.07387295 -0.026452616

linear2.weight f4 [3, 256]
000000 92 17 96 b9 f1 3c 10 3d 0e 5d 47 3d c7 79 6c bb
       -0.0002862779 0.03521437 0.04867273 -0.0036083327
000010 aa a4 77 3d f1 19 8d bb ff 6b 7c 3c 99 4b 11 3d
       0.06045977 -0.004306071 0.015406608 0.035472486
000020 11 d5 ab bc 50 2b 9c 3c 8c 43 91 3c 43 86 5e bd
       -0.020975621 0.019063622 0.017732404 -0.05432726
000030 74 ed f1 bc 8f ea de 3b d0 52 64 3c 96 f4 6c bd
       -0.029532172 0.006802864 0.01393576 -0.057850443
000040 ce 9e 12 bd 26 38 a7 3c 6b 07 c6 bc 2b 4c 0b 3d
       -0.03579598 0.020412516 -0.024173459 0.034008186
000050 28 d4 ff 3c c0 8a 71 3c 24 95 ee bc 63 02 fe bb
       0.031229094 0.014742553 -0.02912385 -0.0077517494
000060 90 38 14 3d 98 b0 35 3d 6d 45 2d bd a0 8e 0e 3d
       0.036186755 0.044357866 -0.042302538 0.034803987
000070 0f eb 3c bd e7 29 79 3b a0 a2 74 3c 96 8f 69 bd
       -0.046122607 0.003801936 0.014931351 -0.0570217
000080 06 fd 0e bd f7 76 5d bd c6 0b 4f bc 65 a6 2c bd
       -0.03490927 -0.05406853 -0.012637084 -0.042150874
000090 72 a0 7d 3d 17 de e2 bc 56 dd 04 ba 84 8a 08 bd
       0.06192059 -0.027693791 -0.0005068382 -0.033335224
0000a0 43 1e 09 bd d8 bb 19 bc c9 e6 58 bc 9e 5e 65 3d
       -0.033476125 -0.009383164 -0.013238617 0.055998437
0000b0 65 0c ec bc 7d 18 32 bd f4 09 25 3c ca fd 1e bd
       -0.028814504 -0.043480385 0.010073174 -0.03881625
0000c0 48 12 0b bd a3 51 b9 bc f6 6b 87 bb de 95 d3 3b
       -0.03395298 -0.022621935 -0.004132743 0.0064570745
0000d0 16 41 6d 3d 8a db 6f ba 02 70 41 bd cd 65 8b 3c
       0.0579234 -0.00091498403 -0.04722596 0.017016316
0000e0 b9 e0 67 bd bc 83 4c 3c df 95 11 3d a6 54 a5 bc
       -0.056610797 0.01248258 0.03554332 -0.020181965
0000f0 26 e1 50 3c 4a 69 51 bd 3c c2 21 3d 24 31 01 bc
       0.012748992 -0.051125802 0.039491877 -0.007885251
000100 58 c1 04 3d 2f 99 04 3c c3 d6 0b 3c 1e e9 20 bd
       0.03241095 0.008093162 0.00853509 -0.039284818
000110 88 c0 2d b8 fc 20 b3 bc 32 c5 82 bd 7e bb 24 3c
       -4.1425723e-05 -0.021866314 -0.06385268 0.010054467
000120 5f 21 4a 3c 19 43 d1 3a 52 df 0d 3d 52 17 66 bb
       0.012337058 0.0015965431 0.034636803 -0.0035109115
000130 40 af f7 ba 13 45 cd bc 47 2d 7d bd aa 08 b8 bc
       -0.0018896833 -0.025057351 -0.061810758 -0.022465069
000140 20 08 1d 3c d0 a8 81 bc a7 10 f1 bc c5 9c ee 3b
       0.009584457 -0.015827566 -0.029426886 0.007281872
000150 be 20 be bc 24 75 34 3b f5 52 6d 3c a8 ef f6 bc
       -0.023208972 0.0027535642 0.0144851105 -0.030143574
000160 8f 52 d4 bb c7 38 5f bd a8 7c aa bc 15 6e 38 3d
       -0.0064795683 -0.054497506 -0.020811394 0.045026857
000170 a4 bc 24 3d 78 14 38 bc 5f ab 8c bc d8 80 2a 3d
       0.040218964 -0.011235349 -0.01717156 0.04162678
000180 a8 93 05 ba dc bc 4c bd fe ae ab 3c 83 b6 b9 3c
       -0.000509555 -0.049984798 0.020957466 0.022670036
000190 33 68 79 3d aa 73 4a bd 10 63 f6 bc 2f 6f 05 3d
       0.060890388 -0.049426712 -0.030076534 0.032576736
0001a0 be 66 5a 3c fe 2a 74 bd e6 d2 02 3d 95 80 59 bc
       0.01333016 -0.059611313 0.03193941 -0.013275285
0001b0 28 64 10 3d 77 09 0f 3d e6 e9 84 3c d8 9d fa bc
       0.035251766 0.034921136 0.016224813 -0.030592844
0001c0 35 d6 9d 3b 5a cb ef bc aa b9 20 3d 80 8c 4e 3d
       0.0048167952 -0.02927177 0.039239563 0.05042696
0001d0 56 03 13 bd b8 15 bf bc 05 4b 36 bd f9 ff a4 bb
       -0.035891853 -0.023325786 -0.044505138 -0.005035397
0001e0 14 e8 f5 3c 0c 90 45 bb f0 7d aa bc 0a bf 35 3d
       0.03001789 -0.0030145673 -0.020812005 0.044371642
0001f0 c5 58 f1 3c 6c f1 4e 3d e9 e6 25 3d de 1e 4a 3d
       0.029461274 0.050523207 0.040503416 0.049345843
000200 74 66 37 3d b3 c5 0d bc f4 25 b4 39 b1 04 6f bd
       0.04477544 -0.008653092 0.00034360553 -0.058354083
000210 a0 84 31 3d b2 5d 13 bd ed dd df 3c 39 4e cb 3c
       0.04333937 -0.035978027 0.027327502 0.024817573
000220 bf 80 9d bc c3 42 40 3d 37 31 08 3d 03 7a 42 3d
       -0.01922643 0.04693867 0.03325006 0.04747964
000230 38 f9 5d bd 9b 21 6c 3c a8 6e 45 3d 56 9e b4 3c
       -0.05419275 0.014412309 0.048201233 0.022048157
000240 54 32 1f 3d 84 12 c2 3c 5c 63 0c 3d f0 07 be 3b
       0.038866356 0.02369047 0.034274444 0.005799286
000250 44 df ba bc 8d 3e 1f bd 2c e4 35 3d 2f a2 3c bd
       -0.02281154 -0.038878012 0.044407055 -0.046053108
000260 b8 a5 01 3c 71 9b af 3c 53 3f 41 3b 30 ee 65 bd
       0.007913046 0.021436425 0.0029487207 -0.056135356
000270 64 3c 99 bc 42 6d 25 3b 0a 24 6f bd 1f df d5 bb
       -0.018705554 0.0025242125 -0.05838398 -0.0065268422
000280 3d 5d 44 3d fc 69 e3 3c 63 88 be bb bf af a4 bc
       0.04794048 0.027760498 -0.0058145984 -0.020103334
000290 dc 86 37 bc a0 f6 94 3b fb 5a ad 3c 41 cd 71 bd
       -0.011201587 0.0045460016 0.021161547 -0.059033636
0002a0 0b 90 22 bd 92 f6 b9 3c cc b8 70 3d 22 36 7b bc
       -0.03968815 0.022700582 0.058769986 -0.0153327305
0002b0 13 bd c5 bc cb cf bd bc ef 28 dd bc c7 27 3f 3d
       -0.02413801 -0.023170372 -0.026997058 0.046668794
0002c0 88 2f 3d bd 90 93 9b bc 05 64 2e bd ca cb 03 bd
       -0.046187907 -0.018991262 -0.042575855 -0.03217677
0002d0 3a 7c 0a bd 49 81 56 3d 8e 87 c0 bc 98 ee 4c bb
       -0.033809878 0.05236939 -0.023502138 -0.0031270143
0002e0 87 73 57 bd 42 fa 1c bd e1 54 b8 bc 88 0a e7 3c
       -0.05260041 -0.038324602 -0.02250141 0.028203264
0002f0 7c 3d c7 3c dd bd d3 bc 88 12 40 bd f6 05 19 3d
       0.02432131 -0.02584737 -0.046892673 0.0373592
000300 0b 65 a6 bb 90 05 23 3d ba b5 98 3a f3 02 13 bd
       -0.005077963 0.039800227 0.0011650838 -0.035891484
000310 3e 44 41 3d 08 58 76 bd 43 c9 4b 3d 57 7a 0f 3d
       0.04718422 -0.060142547 0.049752485 0.03502878
000320 77 fd 2c 3d 10 41 df 39 93 2f 01 3d f2 15 60 3d
       0.04223391 0.0004258235 0.03153951 0.05470843
000330 5f d0 84 3d 5b 72 0f 3d 2e dc c3 3b 5d 56 3d 3c
       0.06485056 0.035021167 0.005977175 0.011556235
000340 c7 96 6c bc a1 d2 15 3d 88 9e 3b bc 64 f3 90 3c
       -0.014440245 0.036577825 -0.011451371 0.017694183
000350 a4 1b d1 3b 86 65 14 bd d0 07 41 bd 56 23 2f bd
       0.006381469 -0.036229633 -0.04712659 -0.04275831
000360 13 af 36 bd 81 a5 84 bc 61 dc 4e bd 1f 3c 9c bc
       -0.044600558 -0.0161922 -0.05050314 -0.019071637
000370 79 f2 f7 bc 55 31 b0 3c b5 06 af 3c 5b 58 a2 bc
       -0.030266987 0.021507898 0.021365503 -0.019817522
000380 3d da 91 3c 93 c0 28 3d b2 2e f7 bc b2 63 9c 3c
       0.01780426 0.041199278 -0.030173633 0.019090507
000390 1a 6b 62 3d d9 14 2f bd 45 d7 22 3d df 19 09 bd
       0.05527792 -0.04274449 0.03975608 -0.03347194
0003a0 46 b7 36 3d 2b 60 a2 3c 2a e4 64 bd 7e 10 1e bc
       0.044608377 0.019821247 -0.055881657 -0.009647487
0003b0 94 37 cf 3c 39 db 5c 3d b5 4e 7c bd a0 75 92 ba
       0.025295056 0.053920005 -0.0615985 -0.0011173971
0003c0 b8 d1 fe 3c be 18 12 bd 3a 2f c4 3c 14 d2 b1 bc
       0.031105861 -0.035668127 0.0239483 -0.021706618
0003d0 34 77 1c bd c3 96 67 3c 87 ef d0 3c 5c 01 25 bd
       -0.03819962 0.0141350655 0.02550484 -0.0402845
0003e0 fc fb 6b bd 5f 0d 31 3d 6e 76 3c bc cf d5 b5 bc
       -0.057613358 0.043225642 -0.011502845 -0.022196678
0003f0 db bd 65 3d 90 ca 55 3d 47 45 a1 3c d8 d0 35 3c
       0.056089263 0.05219513 0.019686354 0.0110971555

linear2.bias f4 [3]
000000 f4 2d 1a bd 03 8f e8 3c 20 ec 2b 3c
       -0.03764148 0.028388506 0.010493308
