model/500gmodel.pth (torch, 17216 bytes, 4 tensors)

linear1.weight f4 [256, 11]
0	0x3e761bf5	0.24034102
1	0xbe7398fb	-0.23788826
2	0xbd6de419	-0.05807886
3	0x3f04a5f3	0.5181572
4	0x3e9aaa91	0.30208257
5	0xbeb87118	-0.36023784
6	0xbdf8c32c	-0.12146601
7	0xbebd2c78	-0.3694799
8	0xbe222ca6	-0.15837345
9	0x3efc8f18	0.49327922
10	0x3eb4a688	0.35283303
11	0xbef3a099	-0.47583464
12	0x3cc4ccf3	0.024023509
13	0x3f26844e	0.6504563
14	0x3ed9f3d3	0.42568836
15	0x3d975b56	0.07390468
16	0xbef8d0a6	-0.48596686
17	0x3ea586b2	0.32329327
18	0x3e4e4e4c	0.20147055
19	0xbe2de627	-0.16982327
20	0xbdc4bdb5	-0.09606496
21	0xbe82ae8c	-0.25523794
22	0xbc64244a	-0.013924668
23	0x3daa2596	0.0830795
24	0xbef3f58b	-0.47648272
25	0xbdd43751	-0.10362113
26	0xbdaca6d6	-0.08430259
27	0x3f01ce92	0.50705826
28	0x3e2db1a7	0.169623
29	0xbe9d753c	-0.30753505
30	0xbf185b89	-0.5951467
31	0x3e62ddef	0.22154973
32	0x3e448278	0.19190395
33	0xbdea94ee	-0.11454187
34	0x3eb9cb69	0.36288002
35	0x3edd59a3	0.4323245
36	0x3d6daee0	0.058028102
37	0xbdbdcf2c	-0.092680305
38	0x3de633d4	0.11240354
39	0x3dce3ba2	0.10069968
40	0x3de8de60	0.1137054
41	0x3e878266	0.26466674
42	0x3eb66bd3	0.35629138
43	0x3e98f245	0.29872337
44	0x3e91f3e9	0.285064
45	0xbb50db30	-0.0031868927
46	0xbf7e7145	-0.99391586
47	0x3eb88a36	0.36042947
48	0xbea632f9	-0.32460764
49	0xbf065f2c	-0.5248897
50	0x3d093d44	0.033505693
51	0xbee23509	-0.44181088
52	0x3e91050c	0.28324163
53	0x3efc9e8c	0.49339712
54	0xbe08da4a	-0.1336452
55	0x3ec2f275	0.38075605
56	0x3d111077	0.035416093
57	0x3d6e6ecc	0.058211133
58	0xbe5563c7	-0.20838843
59	0xbc24c891	-0.010057584
60	0xbe767f39	-0.24071969
61	0xbd40a994	-0.047036722
62	0x3ec10346	0.3769781
63	0x3e3b46e1	0.18288757
64	0x3eb9aaab	0.36263022
65	0x3e5c3f0b	0.21508424
66	0x3dcf2605	0.101146735
67	0xbed80e4b	-0.42198405
68	0xbeb19f1d	-0.34691706
69	0xbf06b206	-0.5261539
70	0x3e9d263e	0.3069324
71	0x3ea2cd65	0.3179733
72	0xbe9b8930	-0.30378103
73	0xbf068f53	-0.52562445
74	0xbed6128c	-0.41811025
75	0xbeafb10a	-0.34314758
76	0x3eb8bb3e	0.36080354
77	0xbdc4b58f	-0.09604942
78	0xbeb8334c	-0.35976636
79	0xbe643bf4	-0.22288495
80	0xbf2c2c7c	-0.6725538
81	0x3e67628e	0.2259619
82	0xbe2548a2	-0.16140988
83	0xbe38e334	-0.18055421
84	0xbf2268ee	-0.6344136
85	0x3ea5ace8	0.3235848
86	0xbf2b2fc0	-0.66869736
87	0xbe9e0ab2	-0.30867535
88	0xbf2df4ef	-0.67951864
89	0xbea0fd65	-0.31443325
90	0xbd5dee27	-0.054182198
91	0x3db10833	0.08644142
92	0xbd1881b4	-0.03723307
93	0xbc80ab2b	-0.01570662
94	0xbc5d0ec1	-0.013492287
95	0xbd9f918e	-0.07791434
96	0xbd8889c4	-0.06666902
97	0xbc862d92	-0.016379151
98	0x3dc69d96	0.09698026
99	0x3e712273	0.23548298
100	0xbe88ea7a	-0.2674139
101	0x3e6673ab	0.22505061
102	0x3d8d5b9a	0.06902237
103	0xbd35652d	-0.044285942
104	0x3dc14cc4	0.0943847
105	0xbdcadc7d	-0.09905336
106	0xbe94fe39	-0.29100206
107	0xbe7a2870	-0.24429488
108	0xbe8ec909	-0.27887753
109	0xbe78d1e9	-0.24298824
110	0xbf04b8a3	-0.51844233
111	0x3d1e2bcf	0.038615998
112	0x3eb2cee6	0.34923476
113	0xbf172129	-0.59034973
114	0x3e27d5dd	0.16390176
115	0x3e973223	0.2953044
116	0x3e14bdbd	0.14525504
117	0xbef913e0	-0.48647976
118	0x3dafe1c1	0.08587981
119	0x3e86476b	0.26226363
120	0x3ea68b46	0.32528132
121	0x3e4ff601	0.20308687
122	0x3f1200c2	0.57032406
123	0x3e16de2c	0.1473319
124	0xbeba7839	-0.36419848
125	0x3da81e8d	0.08208952
126	0xbe46606e	-0.19372723
127	0xbcdfc9e2	-0.027317945
128	0x3f0bdd09	0.5463415
129	0x3e4b08a9	0.19827522
130	0x3f07a7e2	0.52990544
131	0x3e4f9eb0	0.20275378
132	0x3e49f9e9	0.1972424
133	0x3f1e3520	0.6179981
134	0xbeb68468	-0.35647893
135	0x3ea069f5	0.3133084
136	0xbec6b699	-0.38811186
137	0x3e0ebf37	0.1394013
138	0xbec1a756	-0.3782298
139	0xbda1f796	-0.079085514
140	0x3e5efb25	0.21775492
141	0xbe2ae674	-0.16689473
142	0x3f0c43b3	0.547908
143	0xbd87e071	-0.06634606
144	0x3b80cbc8	0.0039305426
145	0x3efe83e1	0.4970999
146	0xbe82df3a	-0.25560933
147	0xbec12d2e	-0.37729782
148	0x3dba0641	0.09083224
149	0xbee98247	-0.45607206
150	0xbd49ec8c	-0.049297854
151	0xbc54ba04	-0.012983803
152	0xbe10c248	-0.14136612
153	0x3eef5189	0.46741894
154	0x3dc888c2	0.097917095
155	0x3e489c4f	0.19590877
156	0xbf7ae715	-0.98008853
157	0xbdba5ba8	-0.09099513
158	0x3e13c7f6	0.14431748
159	0x3da3e92f	0.080034606
160	0xbef6503d	-0.48108092
161	0x3ea23f6b	0.3168901
162	0x3df3eee1	0.11910797
163	0x3e271b02	0.16318896
164	0x3f008b5c	0.50212646
165	0x3e779580	0.24178123
166	0x3deb2ac5	0.11482767
167	0xbd42c6a9	-0.04755274
168	0xbb66d0ab	-0.003521959
169	0xbdbfef97	-0.0937187
170	0xbe01b3c7	-0.12666236
171	0xbea22e0a	-0.3167575
172	0x3d832fbb	0.06405588
173	0x3d8d4e2c	0.06899676
174	0x3dadb8b6	0.084824964
175	0xbe0ef085	-0.13958938
176	0xbe3342fd	-0.17506023
177	0x3d70a842	0.058754213
178	0x3e11f86e	0.14254925
179	0xbdb555f4	-0.08854285
180	0x3d20b9cf	0.0392397
181	0x3eea4025	0.45752063
182	0xbe6336e6	-0.22188911
183	0x3e132082	0.1436787
184	0xbed730dd	-0.42029467
185	0xbf03e431	-0.5152007
186	0xbf04c600	-0.51864624
187	0x3d7fb296	0.062426172
188	0x3cd0f42f	0.02550706
189	0xbef02945	-0.46906486
190	0x3c2fa0a5	0.010719453
191	0xbc9266d0	-0.01787129
192	0xbd33dd71	-0.043912355
193	0xbe3e73f0	-0.18598914
194	0x3d91acf6	0.07113068
195	0x3d360a79	0.04444358
196	0x3c561eb7	0.013068846
197	0x3d3275b6	0.04356929
198	0x3db3088b	0.08741864
199	0xbf1c9837	-0.6116976
200	0x3dab34eb	0.08359703
201	0xbeaaa597	-0.3332946
202	0xbe652cf2	-0.22380427
203	0xbd212c54	-0.039348915
204	0x3ecc8db1	0.39951852
205	0x3dc6b16b	0.097018085
206	0xbe83dc1c	-0.25753868
207	0x3de1f8a3	0.11033752
208	0xbefb0bc4	-0.49032414
209	0xbda84740	-0.08216715
210	0xbe8d65be	-0.27616686
211	0xbeeb7369	-0.45986488
212	0xbd2959f6	-0.04134556
213	0xbe0729ea	-0.13199583
214	0x3d1b829a	0.03796635
215	0x3d94eccf	0.0727173
216	0xbdca82e8	-0.0988825
217	0xbe091a36	-0.13388905
218	0xbe5d0e35	-0.21587451
219	0xbded6ac9	-0.11592633
220	0xbe016015	-0.12634309
221	0x3dd149e0	0.10219169
222	0xbe9fa17f	-0.311779
223	0xbf0d71f4	-0.55252004
224	0x3ed7dea0	0.42162037
225	0xbf135f58	-0.5756736
226	0x3ea11a12	0.31465203
227	0xbedaffac	-0.42773187
228	0x3f1547dd	0.5831278
229	0xbf35985f	-0.70935625
230	0xbed79906	-0.42108935
231	0x3e7bc01e	0.24585006
232	0xbf67f0db	-0.9060189
233	0x3ed0f2a7	0.4081013
234	0xbd1fd909	-0.03902534
235	0x3df62e0c	0.120205015
236	0x3e34f199	0.17670287
237	0x3e95843f	0.29202458
238	0xbee54d23	-0.44785413
239	0xbef0c40e	-0.47024578
240	0xbe475cac	-0.19468945
241	0xbe87b29d	-0.2650346
242	0xbcef8096	-0.02923612
243	0xbf15c478	-0.5850291
244	0x3d437727	0.047721054
245	0xbe11bcd6	-0.14232191
246	0x3ee7bbb1	0.45260385
247	0xbe2cdb2d	-0.16880484
248	0x3d916c9b	0.07100793
249	0x3e968e10	0.2940526
250	0xbe478aef	-0.19486593
251	0x3eb5990a	0.35468322
252	0xbeec0c6b	-0.46103224
253	0xba45c950	-0.00075449515
254	0x3ebb1433	0.36538848
255	0xbd811be0	-0.06304145

linear1.bias f4 [256]
0	0xbe19295d	-0.14957185
1	0xbe4c6e63	-0.19963984
2	0x3caa65fb	0.020800581
3	0xbe8cf0c0	-0.27527428
4	0x3d5d9aa2	0.054102547
5	0xbeab3bad	-0.33443967
6	0x3d0ac368	0.03387776
7	0x3e634760	0.22195196
8	0xbe15378c	-0.1457197
9	0xbe37d1b4	-0.17951089
10	0x3e3bfbcd	0.18357773
11	0xbe9be574	-0.30448496
12	0xbe9bb69a	-0.3041275
13	0xbd0ab0b2	-0.033859916
14	0xbea436f8	-0.32073188
15	0xbf06a374	-0.5259316
16	0xbe1d439e	-0.15357825
17	0xbe8daa21	-0.2766886
18	0xbe3bf6a2	-0.18355802
19	0x3f95b94b	1.1697172
20	0xbe5cde7e	-0.21569249
21	0x3f158e9f	0.5842075
22	0xbe51d2a6	-0.20490512
23	0xbe656c84	-0.22404677
24	0xbe0db406	-0.13838205
25	0x3de81476	0.113320276
26	0xbd0fd444	-0.03511454
27	0x3e5e5db7	0.21715437
28	0xbdd9c7e7	-0.106338315
29	0xbdbd5a20	-0.092457056
30	0x3e347719	0.17623557
31	0xbdc02be5	-0.09383372
32	0x3ed19c94	0.40939772
33	0xbe182ed7	-0.14861618
34	0xbcd77a2b	-0.026303371
35	0x3c15c7e9	0.009141901
36	0xbe254177	-0.16138254
37	0x3e4be89a	0.19912949
38	0xbf133647	-0.57504696
39	0xbdbf27d5	-0.09333769
40	0xbc6669dd	-0.014063326
41	0xbe5fef98	-0.21868742
42	0x3e8b04a2	0.27151972
43	0xbe2d7b7b	-0.16941635
44	0xbead4a24	-0.33845627
45	0xbcc8e245	-0.024521956
46	0x3e7c0e70	0.24614882
47	0xbcbb75eb	-0.022883376
48	0xbcc7dfe8	-0.024398759
49	0x3ee49cb7	0.44650814
50	0xbe7759de	-0.24155375
51	0xbdf508d7	-0.11964577
52	0x3db5ad21	0.08870912
53	0xbd59bea8	-0.05316034
54	0xbe23cadb	-0.15995352
55	0xbd94a0d0	-0.07257235
56	0x3cace4e9	0.021105247
57	0xbe7dc1d5	-0.24780972
58	0xbde67254	-0.11252275
59	0x3c8f0190	0.0174568
60	0xbc5cb97c	-0.013471957
61	0x3df968d0	0.121781945
62	0xbe48146e	-0.19539043
63	0x3e456b72	0.19279268
64	0xbcf4fc68	-0.029905513
65	0xbe5cee0e	-0.21575186
66	0xbe833069	-0.25622872
67	0x3b9bf814	0.004759798
68	0xbc761e0b	-0.015021811
69	0xbd8e0be4	-0.06935862
70	0xbe5e6a55	-0.2172025
71	0xbd99241e	-0.07477592
72	0xbe410372	-0.1884897
73	0xbea5b5b5	-0.32365194
74	0x3d02d93a	0.031945445
75	0xbded3e74	-0.115841776
76	0xbe8ffa13	-0.2812048
77	0x3d6545e2	0.05597485
78	0x3e2663e8	0.16249049
79	0xbe0c1497	-0.1367973
80	0xbe59c51d	-0.21266599
81	0x3ef7ad1b	0.48374256
82	0x3d9add99	0.07561798
83	0xbe4551b7	-0.19269453
84	0xbe1ab778	-0.1510905
85	0xbe1b614b	-0.15173833
86	0xbdf400b3	-0.11914196
87	0x3dfe6ae2	0.1242273
88	0x3e8d79c0	0.2763195
89	0x3ed396da	0.41326028
90	0xbe84ae7e	-0.25914377
91	0x3e8f4b56	0.27987164
92	0xbd8124b1	-0.063058265
93	0xbe94a476	-0.29031724
94	0xbea6dfe6	-0.32592696
95	0xbe9dff4a	-0.30858833
96	0x3dd3f10a	0.10348709
97	0xbe42faa9	-0.19040932
98	0xbec37da9	-0.3818181
99	0xbe9c58af	-0.3053641
100	0xbe9ef07a	-0.31042844
101	0xbe81ae28	-0.25328183
102	0xbe77dcab	-0.24205272
103	0xbdf4a378	-0.11945242
104	0x3da6b5dc	0.08140156
105	0xbe42e73f	-0.19033526
106	0xbdaac20d	-0.083377935
107	0xbec2d7d1	-0.3805528
108	0xbe6134da	-0.21992818
109	0xbe7e4143	-0.24829583
110	0xbe4c708a	-0.19964805
111	0xbe081d91	-0.13292529
112	0xbe37ddb9	-0.17955674
113	0x3eecef82	0.4627648
114	0xbed8d435	-0.423494
115	0x3c208e15	0.0097995
116	0xbec4c96e	-0.3843493
117	0x3e838f91	0.2569547
118	0xbecb6c45	-0.3973104
119	0x3dd0b5dd	0.10190938
120	0xbe13594e	-0.14389536
121	0xbe912a00	-0.28352356
122	0xbeafc228	-0.34327817
123	0xbd225452	-0.039631195
124	0x3e70dd00	0.23521805
125	0xbf1fa0c0	-0.6235466
126	0x3d262cb8	0.04056999
127	0x3ed4068f	0.41411254
128	0xbd583f90	-0.052794993
129	0xbe8980dc	-0.26856124
130	0xbc8fdd9c	-0.017561726
131	0x3e6e8742	0.23293784
132	0x3eb1469c	0.34624183
133	0xbe7f344f	-0.24922298
134	0x3e9a307a	0.3011511
135	0x3e89e83c	0.26934993
136	0xbd43b2b1	-0.047777835
137	0x3ec6092a	0.38678867
138	0xbe96aa12	-0.29426628
139	0xbdccb073	-0.099945925
140	0x3d650a11	0.055917803
141	0xbe083411	-0.13301112
142	0xbd5d0af3	-0.05396552
143	0xbd4432d5	-0.04790004
144	0xbe51f160	-0.20502234
145	0xbd9f8e08	-0.07790762
146	0xbeb6949f	-0.35660264
147	0xbdc78753	-0.09742608
148	0xbeb9ff93	-0.363278
149	0xbe5d4526	-0.2160841
150	0x3bb488bb	0.0055094636
151	0x3ede75af	0.4344916
152	0xbda3124e	-0.07962476
153	0x3f5a5de0	0.8529949
154	0xbe09f367	-0.13471757
155	0x3eaea3ac	0.34109247
156	0x3e89bb29	0.26900604
157	0x3ed42571	0.41434816
158	0xbe9e8093	-0.3095747
159	0xbcba10d7	-0.022713108
160	0xbed3adcc	-0.41343534
161	0xbeb1fe90	-0.34764528
162	0xbd9cf166	-0.076632306
163	0x3e69223a	0.22766963
164	0x3e96a864	0.29425347
165	0xbe0a4a46	-0.13504896
166	0xbdd3e139	-0.10345692
167	0xbe4eac70	-0.20182967
168	0xbe6b1083	-0.22955517
169	0xbea47956	-0.32123822
170	0xbe95d160	-0.29261303
171	0xbbc9103d	-0.006135969
172	0xbe39e084	-0.18152052
173	0xbe6ab0a5	-0.22918947
174	0x3d38544c	0.045002267
175	0x3dd70469	0.10498888
176	0x3e95a74c	0.292292
177	0xbe7ad35e	-0.24494693
178	0xbc97937b	-0.018502941
179	0xbeaf287f	-0.34210584
180	0xbebc02b0	-0.367208
181	0xbe60eea1	-0.2196603
182	0xbe9f90d2	-0.31165177
183	0xbe2fef18	-0.17181051
184	0x3cf2c99a	0.029637147
185	0xbeb7583c	-0.35809505
186	0xbebd5eb8	-0.36986327
187	0xbcc13732	-0.02358589
188	0xbec1ef7d	-0.37878028
189	0xbd97b33e	-0.074072346
190	0xbea26f17	-0.3172538
191	0xbd935da3	-0.07195594
192	0xbeccc10b	-0.3999103
193	0x3da9f833	0.08299293
194	0x3ed5c6c1	0.417532
195	0xbe165c4d	-0.14683647
196	0x3e28a697	0.16469799
197	0xbd4542ab	-0.048159283
198	0xbdf25338	-0.11832279
199	0xbed463f4	-0.41482508
200	0xbd925f70	-0.071471095
201	0xbc625706	-0.013814693
202	0xbe81dbb3	-0.2536293
203	0x3cb42b5f	0.021993337
204	0xbe5b5a32	-0.21421126
205	0xbe126633	-0.14296798
206	0xbec96c25	-0.3934032
207	0xbe176e9a	-0.14788285
208	0x3e4efc46	0.20213422
209	0xbd4f05c3	-0.050542604
210	0xbe87d4fd	-0.26529685
211	0xbe429b50	-0.1900456
212	0xbeb6220b	-0.35572848
213	0xbec201df	-0.37892053
214	0x3ab48eec	0.0013775504
215	0xbe911a13	-0.28340206
216	0xbe90d79d	-0.282895
217	0x3b426497	0.0029662007
218	0x3dd2470d	0.10267458
219	0xbe601dad	-0.2188632
220	0xbe6eb6d1	-0.23311926
221	0x3d43063b	0.047613364
222	0xbddaaad2	-0.10677113
223	0xbe1274d8	-0.14302385
224	0xbeb68c4e	-0.3565392
225	0x3f0d7286	0.55252874
226	0xbeb3043b	-0.34964165
227	0xbdb7069a	-0.08936806
228	0x3ec4c9b1	0.38435128
229	0xbe74be8b	-0.23900811
230	0xbc158f50	-0.009128407
231	0x3ef37189	0.47547558
232	0xbde8d6df	-0.113691084
233	0x3e71c136	0.2360886
234	0xbe0bed93	-0.13664846
235	0xbe0e3f05	-0.13891228
236	0xbd66de10	-0.05636412
237	0xbe6009f7	-0.21878801
238	0x3ca30c24	0.01990325
239	0x3c1b0696	0.009462019
240	0xbe55b717	-0.20870624
241	0xbda16dc5	-0.07882265
242	0xbe618345	-0.22022732
243	0xbdff7be7	-0.12474804
244	0xbefcf13c	-0.49402797
245	0xbd5f048d	-0.0544477
246	0x3da98083	0.08276465
247	0x3e9591cd	0.292128
248	0x3d9195e8	0.071086705
249	0x3eb7d7fd	0.35906973
250	0xbee9b96d	-0.4564928
251	0x3f0bc08d	0.54590684
252	0xbeddd653	-0.4332758
253	0xbccfdb36	-0.025373083
254	0xbeaba3ba	-0.3352335
255	0xbe1389c7	-0.14408027

linear2.weight f4 [3, 256]
0	0xbf196c47	-0.59930843
1	0x3e20b746	0.15694913
2	0x3e8efaff	0.2792587
3	0xbd613a09	-0.054986987
4	0xbec97900	-0.39350128
5	0xbd9242a4	-0.07141617
6	0xbf254493	-0.6455776
7	0x3e912a7f	0.28352734
8	0x39f80e95	0.0004731311
9	0x3cdd7562	0.027033512
10	0x3ec84fb1	0.391233
11	0xbe5afda9	-0.21385826
12	0xbe412f20	-0.18865633
13	0xbda8d334	-0.08243409
14	0xbd955b6c	-0.07292828
15	0x3e097b7c	0.13426012
16	0xbd956309	-0.0729428
17	0x3bd23dee	0.006416074
18	0xbd69de26	-0.057096623
19	0x3e6a99e2	0.22910264
20	0x3eb6ca48	0.35701203
21	0x3e630317	0.22169147
22	0xbe946a6e	-0.2898745
23	0x3c5205d7	0.012818775
24	0xbc5ff666	-0.013669586
25	0xbe392f03	-0.1808434
26	0xbea69311	-0.32534078
27	0x3ede97db	0.43475232
28	0xbe663019	-0.22479285
29	0xbe0ad6f9	-0.13558568
30	0x3e95ddfc	0.29270923
31	0xbdb0d7e9	-0.086349316
32	0x3d04b167	0.032395747
33	0xbcf7390a	-0.030178566
34	0xbd6a0861	-0.057136897
35	0x3d382caf	0.04496449
36	0x3d653789	0.055961166
37	0x3f0fda6e	0.5619267
38	0xbba82838	-0.0051317476
39	0x3d9298ab	0.07158025
40	0x3c9d1f3f	0.019179938
41	0x3d5619cc	0.052270696
42	0x3e8b1b89	0.27169445
43	0xbe4940b7	-0.19653593
44	0xbebee1e2	-0.3728171
45	0x3ea37022	0.31921488
46	0x3ead04fe	0.3379287
47	0xbe05aae4	-0.13053471
48	0x3ca3e9ca	0.02000894
49	0x3e912ce6	0.28354567
50	0xbe8e7c30	-0.27829123
51	0xbebd5def	-0.36985728
52	0x3f01de59	0.507299
53	0xbc2c53f9	-0.0105180675
54	0xbc36413c	-0.0111239515
55	0xbd8fa0c5	-0.07013086
56	0xbd30da45	-0.043176908
57	0xbdf3973f	-0.11894082
58	0x3bedc7b0	0.0072564706
59	0x3c6ce542	0.014458956
60	0xbe1090fe	-0.1411781
61	0xbeec6fc3	-0.46179017
62	0x3c588571	0.013215409
63	0x3f05db5a	0.5228783
64	0x3da345a2	0.07972266
65	0xbd0754e4	-0.033039942
66	0xbda8eb69	-0.08248026
67	0xbe0dfb89	-0.13865484
68	0xbd51259d	-0.05106126
69	0x3b46a865	0.0030312773
70	0xbbf60cef	-0.007508866
71	0x3e8bbda4	0.27293122
72	0xbd81eae0	-0.06343627
73	0xbe511ac7	-0.20420371
74	0x3e7515cb	0.23934095
75	0x395cdeef	0.00021063884
76	0xbd813c44	-0.06310323
77	0x3e3b4de0	0.18291426
78	0xbf202fc8	-0.6257291
79	0xbd0ae3ab	-0.033908527
80	0xbef02a75	-0.46907392
81	0x3e44933c	0.1919679
82	0x3dcedac1	0.10100318
83	0xbdd25c94	-0.10271564
84	0xbe4c0f10	-0.19927621
85	0xbd5020c7	-0.05081251
86	0xbd9bf9e1	-0.0761602
87	0x3dc639d3	0.09678998
88	0xbd50b2b5	-0.05095168
89	0x3e81b743	0.2533513
90	0xbc4df3c8	-0.012570329
91	0x3e53d731	0.20687558
92	0xbe9e5f87	-0.30932257
93	0xbcaec59e	-0.021334466
94	0xbd53c160	-0.05169809
95	0xbe62453d	-0.22096725
96	0xbdb993f4	-0.09061423
97	0x3d9991e3	0.07498529
98	0xbe6c1cd9	-0.2305788
99	0xbc9ca5be	-0.019122
100	0xbda94853	-0.08265748
101	0xbe2db859	-0.16964854
102	0x39a7fdf1	0.00032041923
103	0x3c618bb4	0.013766218
104	0x3e7424de	0.23842189
105	0x3edc8d0b	0.43076357
106	0xbf1d0fa7	-0.6135201
107	0xbcebd8bf	-0.028789876
108	0xbcd4f8ef	-0.025997607
109	0xbee0cad4	-0.43904746
110	0xbce4b73f	-0.02791941
111	0xbe446674	-0.19179708
112	0xbed660af	-0.4187064
113	0x3e8c149f	0.27359483
114	0x3bd8d239	0.0066168574
115	0x3be27128	0.006910462
116	0xbda3d725	-0.0800002
117	0x3eb8ff70	0.36132383
118	0xbda02a4f	-0.0782057
119	0x3e352ee6	0.17693672
120	0xbd60508c	-0.054764315
121	0xbd415f9a	-0.047210313
122	0xbdd53976	-0.104113504
123	0x3eb7b267	0.35878298
124	0x3edb12e4	0.4278785
125	0xbe935a94	-0.28780043
126	0xbe9bf19b	-0.30457768
127	0x3e7df92c	0.24802083
128	0x3e95efae	0.29284424
129	0xbb1956af	-0.0023397615
130	0x3e20ca42	0.15702155
131	0x3eef6324	0.46755326
132	0x3c8a9409	0.016916292
133	0x3c81e442	0.015855912
134	0x3e48f7ba	0.1962575
135	0x3e8b22c9	0.27174976
136	0x3d9c20a5	0.07623414
137	0x3ea2612a	0.31714755
138	0xbdc9b887	-0.09849649
139	0x3d2782bf	0.040896174
140	0xbe5c189f	-0.21493767
141	0x3cba806f	0.02276632
142	0xbf16f5ed	-0.58969
143	0x3ce4a7d7	0.027912064
144	0xbd95a178	-0.07306188
145	0xbee40abc	-0.4453944
146	0x3bcc17f0	0.0062284395
147	0xbe024509	-0.12721647
148	0xbdff1fe9	-0.12457258
149	0xbca57829	-0.020198898
150	0xbea9e164	-0.33179772
151	0x3e921308	0.28530145
152	0x3c0732f0	0.008251891
153	0x3e8bbe33	0.27293548
154	0xbdfb4f79	-0.122710176
155	0x3f14c4c9	0.5811277
156	0xbdacbbd6	-0.08434264
157	0x3e2008cc	0.15628356
158	0xbe390886	-0.18069658
159	0x3e41e94b	0.1893665
160	0xbcae3fc8	-0.021270648
161	0xbd882e97	-0.06649511
162	0x3eb46d02	0.35239416
163	0x3edb3ed1	0.42821363
164	0x3dcc0997	0.099627666
165	0xbd511a53	-0.051050495
166	0xbea45397	-0.32095024
167	0x3ea34d11	0.31894735
168	0x3d64a011	0.055816714
169	0xbe27237a	-0.16322127
170	0xbeae7b54	-0.34078467
171	0xbe859467	-0.26089785
172	0xbdd26681	-0.10273457
173	0xbdcc9445	-0.09989218
174	0xbedca5e8	-0.43095326
175	0xbf1b0828	-0.6055932
176	0x3eaabf1e	0.33348936
177	0x3d814b8a	0.06313236
178	0xbe336639	-0.17519464
179	0xbc38f3bd	-0.0112885805
180	0xbcff07dd	-0.03113168
181	0xbd57281f	-0.052528497
182	0xbc5aa711	-0.013345496
183	0xbdc04686	-0.09388451
184	0x3e8bb403	0.27285776
185	0xbe1920e1	-0.14953949
186	0xbd881cff	-0.066461556
187	0xbec2d7a5	-0.3805515
188	0xbd4b9850	-0.049705803
189	0x3eb9a08c	0.362553
190	0xbd9e057d	-0.077158906
191	0xbe0576d6	-0.13033614
192	0x3bb46b2f	0.0055059413
193	0xbf0fdc3e	-0.5619544
194	0x3ebba967	0.3665268
195	0xbee1a81c	-0.4407357
196	0x3e986928	0.29767728
197	0xbea9b336	-0.3314454
198	0x3ea9134f	0.33022544
199	0x3d6ee168	0.058320433
200	0xbce5177c	-0.0279653
201	0x3e4fda4c	0.20298117
202	0xbd73929f	-0.059466
203	0xbd7407bb	-0.059577685
204	0xbe016afa	-0.12638465
205	0xbe0b2867	-0.13589631
206	0xbcf6da0f	-0.030133275
207	0x3e9814cc	0.29703367
208	0x3eee3af0	0.4652934
209	0xbe5166f9	-0.20449437
210	0xbdba71ff	-0.09103774
211	0x3d757c1b	0.05993281
212	0xbafd861a	-0.0019342334
213	0xbdca9757	-0.09892147
214	0x3ebe6daa	0.37193042
215	0xbd8d8085	-0.06909279
216	0xbe890fff	-0.26770017
217	0xbec814ce	-0.39078373
218	0x3e22a4a0	0.15883112
219	0x3d31f8b2	0.043450065
220	0xbd5970f0	-0.05308622
221	0x3dbc4f79	0.09194846
222	0xbf1f8eac	-0.62327075
223	0xbd8832c4	-0.06650308
224	0xbe7f4991	-0.24930407
225	0x3f18106d	0.59400064
226	0x3b545031	0.003239643
227	0xbe119469	-0.1421677
228	0x3dfd0797	0.12354963
229	0xbd9a2002	-0.07525636
230	0xbb3389fe	-0.0027395482
231	0x3ed2970c	0.41130865
232	0xbedee330	-0.43532705
233	0x3eb6a527	0.35672876
234	0xbf323f1a	-0.69627535
235	0xbe8ce7a6	-0.27520484
236	0xbde9c6c4	-0.11414865
237	0x3c062cac	0.008189362
238	0xbca14b25	-0.019689152
239	0x3ed62897	0.41827843
240	0xbe961dd0	-0.2931962
241	0xbcada346	-0.021196019
242	0xbf18711c	-0.5954759
243	0x3ec94ce4	0.39316475
244	0xbe824008	-0.25439477
245	0xbe413419	-0.1886753
246	0xbeee4633	-0.46537933
247	0x3e14071f	0.14455841
248	0x3e8947dc	0.26812637
249	0x3d67b95b	0.056573253
250	0xbca9b76d	-0.020717347
251	0x3efe11b7	0.4962289
252	0xbd8fe263	-0.07025602
253	0xbea36b9c	-0.31918037
254	0x3d1fa524	0.03897585
255	0xbaebda6d	-0.0017994173

linear2.bias f4 [3]
0	0x3e58bec2	0.21166518
1	0x3dc325f4	0.09528723
2	0xbbd8bac3	-0.0066140606
