model/50gmodel.pth (torch, 17216 bytes, 4 tensors)

linear1.weight f4 [256, 11]
0	0xbeaf0dfb	-0.34190354
1	0x3e71c390	0.23609757
2	0xbc9b967f	-0.01899266
3	0xbccc22b6	-0.024918895
4	0x3e326033	0.1741951
5	0x3e82d50c	0.25553167
6	0xbd7253ff	-0.059162136
7	0x3d34fc13	0.04418571
8	0xbe88408d	-0.26611748
9	0x3e19e540	0.15028858
10	0x3be3b991	0.0069496115
11	0xbdc639ce	-0.09678994
12	0xbe9b6b42	-0.3035527
13	0xbe0791b1	-0.1323917
14	0xbe5cc0f9	-0.21557988
15	0x3e195dc8	0.14977181
16	0xbe152bff	-0.14567564
17	0xbd98b6f7	-0.07456773
18	0xbe521216	-0.20514712
19	0xbd2a68f3	-0.041603994
20	0x3e142464	0.14467007
21	0x3e38e98b	0.1805784
22	0x3e7716cb	0.24129789
23	0xbdc5c746	-0.09657149
24	0x3c114f64	0.008869026
25	0x3e2e7826	0.1703802
26	0xbd7086a9	-0.058722172
27	0x3e553f19	0.20824851
28	0xbdb64708	-0.08900267
29	0x3e77bc26	0.24192867
30	0xbdbeab8d	-0.093100645
31	0xbdc836c3	-0.0977607
32	0x3e85424f	0.26027152
33	0xbe2fa188	-0.17151463
34	0xbe2d20d3	-0.16907053
35	0x3e4ff53c	0.20308393
36	0x3e40b942	0.1882067
37	0xbc162f92	-0.009166615
38	0xbdce1683	-0.100628875
39	0xbe6bbd0c	-0.23021334
40	0x3df19331	0.11795653
41	0x3e3dbda5	0.18529375
42	0x3e9496f7	0.29021427
43	0xbe393053	-0.1808484
44	0xbd934649	-0.0719114
45	0x3e69839b	0.2280411
46	0xbdc6e921	-0.097124346
47	0x3e704f2b	0.234677
48	0xbe88355b	-0.26603207
49	0xbd916dd4	-0.07101026
50	0xbcfc34db	-0.030786922
51	0xbe9555a8	-0.29166913
52	0x3e85fca1	0.26169303
53	0xbd24b997	-0.040216055
54	0x3dbde791	0.092726834
55	0x3d69f5cd	0.05711918
56	0xbdece385	-0.115668334
57	0x3d9af8d6	0.07566993
58	0xbe1ec352	-0.15504196
59	0xbe1c72e2	-0.152782
60	0x3dd20f72	0.10256852
61	0x3e46f5f1	0.19429757
62	0x3e9a0896	0.30084676
63	0x3e8766ef	0.2644572
64	0xbd81f655	-0.06345812
65	0x3e4200f4	0.18945676
66	0xbe2341b3	-0.15943031
67	0x3c8cfe0b	0.01721098
68	0xbddd35ee	-0.10801302
69	0x3e83ea71	0.25764802
70	0xbda7591c	-0.08171293
71	0xbd8b4eba	-0.06802125
72	0x3ceee35b	0.029161146
73	0x3e382014	0.17980987
74	0xbcfa0f65	-0.030524919
75	0xbeb790fe	-0.35852808
76	0xbdf79338	-0.120886266
77	0xbe909a55	-0.28242746
78	0x3e3e4015	0.18579133
79	0xbe81f119	-0.25379255
80	0x3c22657e	0.009911893
81	0xbd2063b3	-0.03915758
82	0xbe591d28	-0.21202528
83	0xbde7439b	-0.112921916
84	0x3ce90a41	0.028447272
85	0x3d484892	0.048897333
86	0xbe044d8e	-0.1292021
87	0x3e85d7b2	0.26141125
88	0x3d83b842	0.06431629
89	0xbebaf55b	-0.36515316
90	0xbe465ffd	-0.19372554
91	0x3e034fc6	0.128234
92	0xbc862762	-0.016376201
93	0x3cd38495	0.025820056
94	0x3c1b40a3	0.00947586
95	0x3e764f8f	0.24053787
96	0x3da62660	0.08112788
97	0x3e92b2e3	0.28652105
98	0x3d1650a7	0.03669801
99	0xbc394ecb	-0.01131029
100	0xbe5f7f00	-0.2182579
101	0xbe992b4b	-0.29915842
102	0x3d978d64	0.07400015
103	0xbe8f9e99	-0.28050688
104	0xbe7ee67e	-0.24892613
105	0xbcad9ff3	-0.021194434
106	0xbe18d831	-0.1492622
107	0xbe6c6a90	-0.23087525
108	0x3e1adf86	0.1512433
109	0x3e4d1e3c	0.20031065
110	0x3d8f232d	0.06989131
111	0x3e028deb	0.1274945
112	0x3e571b26	0.2100645
113	0x3c0f3ffe	0.008743284
114	0xbda8dbbb	-0.08245035
115	0xbe7cbe1e	-0.24681899
116	0xbe31834d	-0.17335244
117	0x3ea313ae	0.31850952
118	0xbd93ae42	-0.072109714
119	0xbe348d24	-0.17631966
120	0x3eaccd5a	0.3375042
121	0xbdfa45fd	-0.122203805
122	0xbe47c150	-0.19507337
123	0xbd6cd782	-0.05782271
124	0xbc571e15	-0.013129731
125	0x3e2d51b2	0.16925696
126	0x3e3346e7	0.17507516
127	0x3e1d0ae8	0.15336192
128	0x3e4ce495	0.20009072
129	0x3e153384	0.14570433
130	0xbe6d11d4	-0.23151332
131	0x3ec398ee	0.38202614
132	0x3da2586a	0.0792702
133	0xbdd32e5d	-0.103115775
134	0x3d0fc1b9	0.035096858
135	0x3e51bf9b	0.20483248
136	0xbe282508	-0.16420376
137	0xbe098eab	-0.1343333
138	0xbe80b822	-0.25140482
139	0x3e851a23	0.25996503
140	0x3d8a0a99	0.067403026
141	0xbe24ede6	-0.16106376
142	0xbe69de0f	-0.22838615
143	0x3eaaaa49	0.33333042
144	0xbe30e232	-0.17273787
145	0x3e0d6f8e	0.13812086
146	0x3e2e51c5	0.1702338
147	0x3d7df515	0.062001307
148	0x3dd1d6dd	0.1024606
149	0xbda2bb44	-0.07945874
150	0x3e4bd22f	0.19904397
151	0xbddc21be	-0.10748623
152	0x3ce160a4	0.027511902
153	0x3db4ecde	0.08834241
154	0x3db6b962	0.08922078
155	0x3bf18b7d	0.0073713646
156	0x3de734c0	0.11289358
157	0xbe818aa6	-0.25301093
158	0x3e315f8d	0.17321606
159	0x3e27fc5c	0.16404861
160	0x3e875402	0.2643128
161	0xbe059ab4	-0.13047296
162	0x3e86ee0e	0.26353496
163	0xbe7b1ee2	-0.245235
164	0x3e7bd761	0.2459388
165	0xbc4fe56d	-0.012688977
166	0xbe950699	-0.29106596
167	0x3db49bd9	0.08818788
168	0xbe49f9aa	-0.19724146
169	0xbd923049	-0.07138116
170	0x3d0877db	0.033317428
171	0xbcdbacb1	-0.026815744
172	0xbe584d22	-0.21123174
173	0x3e340304	0.17579275
174	0xbe6d0f2b	-0.23150317
175	0xbda005ad	-0.078135826
176	0x3dec95c2	0.115520015
177	0x3e97fefe	0.2968673
178	0x3d977114	0.07394615
179	0x3e3a7220	0.18207598
180	0x3e43f496	0.19136271
181	0xbe262330	-0.1622436
182	0xbe7b606e	-0.24548504
183	0x3dbb2589	0.09138019
184	0xbd26d05a	-0.040726043
185	0x3e3a4e44	0.18193918
186	0x3e3fd72d	0.18734427
187	0x3d95c29c	0.073125094
188	0xbd46f072	-0.04856915
189	0x3ea7545d	0.32681552
190	0x3cddf7a2	0.02709562
191	0x3e2e41d6	0.17017302
192	0x3e37b4eb	0.17940108
193	0x3e84594a	0.25849372
194	0xbce7d37f	-0.028299091
195	0xbe6ed4cd	-0.23323365
196	0xbe4dda07	-0.20102702
197	0x3d4cc724	0.049994603
198	0xbea72018	-0.32641673
199	0xbe055213	-0.1301959
200	0x3e67bfec	0.22631806
201	0x3e749156	0.23883566
202	0x3ea6ac24	0.32553208
203	0x3e62b3cf	0.22138904
204	0xbdf3f87e	-0.119126305
205	0xbd22c935	-0.039742667
206	0xbe3f26d8	-0.18667161
207	0x3d57b045	0.052658338
208	0x3dc58044	0.09643605
209	0xbe68724a	-0.22699848
210	0xbd7ca924	-0.061684743
211	0x3d3b22e9	0.04568759
212	0xbe98e38d	-0.29861107
213	0x3e3c3f52	0.1838353
214	0x3e8a1ed2	0.2697664
215	0xbda54419	-0.08069629
216	0xbe4c7571	-0.19966675
217	0x3d0c6673	0.03427739
218	0xbe6c301b	-0.23065226
219	0x3e9f8635	0.3115708
220	0x3da2d030	0.07949865
221	0x3dbfaab7	0.09358733
222	0xbd5d1956	-0.05397924
223	0x3e6fb839	0.23410119
224	0x3b2dfbf4	0.002654788
225	0x3d500d02	0.050793655
226	0x3e9873d9	0.29775885
227	0x3e96f1e3	0.2948142
228	0x3e8219e4	0.25410378
229	0xbd4662ee	-0.04843419
230	0xbda37009	-0.079803534
231	0x3c264fa9	0.010150828
232	0x3e8b90a1	0.2725878
233	0x3e47d569	0.19515003
234	0xbe096d59	-0.13420619
235	0xbe2880f5	-0.16455443
236	0xbd00318f	-0.031297263
237	0xbb276cae	-0.0025546956
238	0x3e30dffd	0.17272945
239	0xbd9d1f48	-0.07671982
240	0x3daca3a3	0.08429649
241	0x3ea970e8	0.33093953
242	0x3e24a8a2	0.16079953
243	0xbe08cf24	-0.13360268
244	0x3df959ae	0.12175308
245	0x3e05aa4a	0.13053241
246	0x3e89805c	0.26855743
247	0x3e30d2fa	0.17267981
248	0xbe1108c3	-0.14163499
249	0x3d9f0c3d	0.07766006
250	0xbdbe140b	-0.09281167
251	0x3d60548c	0.05476813
252	0x3e9a613a	0.30152303
253	0xbea8fa00	-0.33003235
254	0x3e6d52f4	0.23176175
255	0x3e1f2f21	0.15545322

linear1.bias f4 [256]
0	0x3d0618d3	0.032738518
1	0x3e6f20a1	0.2335229
2	0xbe3a5741	-0.18197347
3	0xbe26e05e	-0.16296527
4	0xbea3a01d	-0.31958094
5	0x3ce36477	0.027757866
6	0x3d8d0d38	0.06887287
7	0xbd71473e	-0.058905832
8	0x3d0a389b	0.03374539
9	0xbce25306	-0.02762748
10	0xbd8ad947	-0.067797236
11	0x3eccd6da	0.4000767
12	0xbe807fe4	-0.25097573
13	0x3dea3048	0.1143499
14	0xbe9033f3	-0.28164634
15	0xbe78e8f7	-0.24307619
16	0xbda2be5c	-0.079464644
17	0x3e5b7bca	0.2143394
18	0x3c5e7ef6	0.0135800745
19	0xbe3b63c9	-0.18299784
20	0xbe03585c	-0.12826675
21	0x3e6f155e	0.23347995
22	0xbdea0e1f	-0.11428475
23	0x3e7f842c	0.24952763
24	0x3e2a5a52	0.16636017
25	0x3df171bd	0.11789272
26	0x3de4c9f4	0.11171332
27	0x3e2e65e3	0.17031054
28	0xbd1f6940	-0.038918734
29	0x3ec4d4eb	0.38443694
30	0x3e5bbf47	0.21459685
31	0xbe9ec1a9	-0.31007126
32	0x3c3811c7	0.011234707
33	0xbd90599f	-0.07048344
34	0xbdc87cbf	-0.097894184
35	0x3e6813f6	0.22663864
36	0x3e3502ac	0.176768
37	0xbd53e2c5	-0.051729936
38	0xbe314fa3	-0.17315535
39	0xbe80711d	-0.250863
40	0x3e7fe0d1	0.24988104
41	0x3d881343	0.06644299
42	0xbdaed3cc	-0.08536491
43	0x3e5e479f	0.21707009
44	0x3e98a0de	0.29810232
45	0xbe623a49	-0.22092547
46	0xbe4fb0d4	-0.20282298
47	0xbe5a67e3	-0.21328692
48	0x3ebdb877	0.37054798
49	0xbe80e7b1	-0.25176767
50	0x3e4f541d	0.2024693
51	0xbbb7aac4	-0.0056050736
52	0x3d7e7afa	0.062129
53	0xbe07e45e	-0.13270709
54	0xbe9b3933	-0.30317077
55	0x3dd97934	0.10618821
56	0xbd90883f	-0.07057237
57	0xbe9308c3	-0.28717622
58	0xbd312e63	-0.04325713
59	0xbd2aeaa6	-0.041727684
60	0x3db35393	0.08756175
61	0xbe11182c	-0.14169377
62	0x3ca64eed	0.020301307
63	0xbdc8e499	-0.098092265
64	0x3d5b1ea9	0.053496037
65	0xbe12bd47	-0.14330016
66	0xbd5fdc95	-0.054653723
67	0x3e3e75c7	0.18599616
68	0x3deed931	0.1166252
69	0xbe8881cd	-0.2666153
70	0xbe273587	-0.16329013
71	0xbe799926	-0.24374828
72	0x3d3dfbfa	0.04638288
73	0xbe6e1494	-0.23250037
74	0x3e238fac	0.15972775
75	0xbe7b1d99	-0.2452301
76	0xbd862a08	-0.065509856
77	0x3dbab1d4	0.09115949
78	0x3e9d24b4	0.30692065
79	0x3e1a60fb	0.15076058
80	0xbd6ab5c7	-0.057302263
81	0x3db44d27	0.08803778
82	0xbe4c61b4	-0.19959146
83	0xbe97454a	-0.2954505
84	0x3e3165aa	0.17323938
85	0xbd80418b	-0.06262501
86	0x3e88bf86	0.2670862
87	0xbe5b1630	-0.21395183
88	0x3db033f5	0.0860366
89	0xbdde2293	-0.10846438
90	0xbdaeaa2e	-0.08528553
91	0x3e3b379d	0.18282934
92	0xbe0bb644	-0.13643748
93	0x3d876090	0.06610215
94	0x3e848700	0.25884247
95	0xbddaf4b9	-0.106912084
96	0xbdbfb1cb	-0.09360083
97	0xbc6d806f	-0.014495953
98	0x3e878417	0.26467964
99	0x3c84980b	0.016185781
100	0x3e900442	0.28128248
101	0x3e88d5c9	0.26725605
102	0x3c9eaa4e	0.019368317
103	0xbdb37ef9	-0.087644525
104	0xbb968f22	-0.0045946995
105	0x3eae0d40	0.33994484
106	0x3e025145	0.12726314
107	0x3e26517d	0.16242023
108	0x3e9aa46c	0.3020357
109	0x3e2981bf	0.165534
110	0x3dab90a6	0.08377199
111	0x3e5f705e	0.21820208
112	0xbe93907b	-0.28821167
113	0xbdf94406	-0.121711776
114	0xbda521d0	-0.0806309
115	0x3e09c742	0.13454917
116	0x3d4df3d3	0.050281357
117	0xbe342991	-0.17593981
118	0xbd9686c3	-0.073499225
119	0x3e3d6ec9	0.18499292
120	0xbe7e4aee	-0.24833271
121	0x3e7bb486	0.24580583
122	0xbe230c48	-0.15922654
123	0x3ca5f5db	0.020258835
124	0x3e1bb604	0.15206152
125	0x3e083001	0.13299562
126	0xbdb0cfb2	-0.08633365
127	0x3e3cd865	0.18441923
128	0x3db2d147	0.08731323
129	0x3e41b524	0.18916756
130	0xbe1b8898	-0.15188825
131	0x3e96805b	0.29394802
132	0x3e7a786a	0.24459997
133	0xbc24f304	-0.010067705
134	0x3e4260d0	0.18982244
135	0xbe083ad6	-0.13303694
136	0x3e1a86b5	0.15090449
137	0xbe798f3f	-0.2437105
138	0x3e768e96	0.2407783
139	0xbddf0c07	-0.10890966
140	0xbda72c31	-0.08162726
141	0x3ea5f56f	0.32413813
142	0x3eabc0b8	0.3354547
143	0xbe590246	-0.21192273
144	0x3e129263	0.14313655
145	0x3e784d79	0.24248303
146	0xbdd3b546	-0.103373095
147	0x3e9f23c8	0.31081986
148	0xbe812d0a	-0.25229675
149	0x3d817a95	0.06322209
150	0xbe7463a0	-0.23866129
151	0x3e952679	0.29130915
152	0x3eb1f077	0.34753773
153	0x3eae9fb3	0.34106216
154	0xbe57b287	-0.21064197
155	0x3ccbb446	0.024866235
156	0x3de7c1cb	0.1131626
157	0xbe67bc08	-0.22630322
158	0xbe2d9a0b	-0.16953294
159	0x3e9bb1cb	0.30409083
160	0xbdcfc13a	-0.10144277
161	0xbe94167e	-0.2892341
162	0x3d07fbb1	0.033199016
163	0x3e2d219f	0.16907357
164	0x3d39efcf	0.045394715
165	0x3e13026d	0.14356394
166	0xbd130884	-0.035896793
167	0x3dac4f24	0.084135324
168	0x3e4a1f2e	0.19738457
169	0x3eccd953	0.40009555
170	0x3d79e8fc	0.061013207
171	0x3c6942dd	0.014237133
172	0x3c9a7759	0.018855738
173	0x3e44e1c0	0.19226742
174	0x3e0f9a36	0.1402367
175	0x3d90f027	0.070770554
176	0x3e594291	0.212168
177	0xbddcee92	-0.10787691
178	0x3d9400fb	0.072267495
179	0xbe18e95a	-0.14932767
180	0x3e81fba2	0.25387293
181	0xbe8b3fa4	-0.2719699
182	0x3df6fcdb	0.12059947
183	0x3e0276b6	0.12740597
184	0x3d1918b1	0.037377063
185	0x3e977659	0.2958248
186	0x3cc55a2a	0.024090845
187	0x3e2e48f9	0.17020024
188	0xbe20440b	-0.15650956
189	0x3e9c33e2	0.30508333
190	0x3e6784e2	0.22609285
191	0xbe0b39b5	-0.13596232
192	0xbdd11155	-0.10208384
193	0xbe16affc	-0.1471557
194	0x3b89ba9a	0.004203153
195	0xbc8f90d8	-0.017525122
196	0xbe436f1c	-0.19085354
197	0xbdcca4ac	-0.09992346
198	0x3e4e70e0	0.20160246
199	0x3e9deebe	0.30846208
200	0x3e7c9156	0.24664816
201	0x3d523758	0.05132231
202	0xbdac69ce	-0.08418618
203	0xbe51063f	-0.20412539
204	0xbeb0bd4d	-0.34519425
205	0x3e2449b8	0.16043746
206	0xbbd7416b	-0.0065690777
207	0x3eb9097d	0.3614005
208	0x3e36eeb8	0.17864501
209	0x3e6dcdc6	0.23223028
210	0xbcb643cb	-0.022249123
211	0xbea24704	-0.31694806
212	0x3d3d80cf	0.04626542
213	0xbd9b0968	-0.075701535
214	0xbe6a5e15	-0.22887452
215	0x3d5a6c20	0.053325772
216	0x3e617731	0.22018124
217	0x3e93666d	0.28789082
218	0x3aaff045	0.0013423046
219	0xbe98cdb2	-0.29844433
220	0x3eb45263	0.35219106
221	0x3dcffa4d	0.10155163
222	0x3cc7e6dd	0.024402076
223	0x3c6bdbbf	0.014395653
224	0x3e74ff03	0.23925404
225	0xbcce7736	-0.025203329
226	0x3c464f78	0.012103908
227	0x3df36a91	0.1188556
228	0x3da89bc1	0.08232833
229	0xbe5b4e10	-0.21416497
230	0xbe7b9686	-0.24569139
231	0x3d4c9184	0.049943462
232	0x3d33364e	0.04375296
233	0x3e0cb371	0.13740326
234	0xbd0a8d0d	-0.033825923
235	0xbe84ef28	-0.25963712
236	0xbe432422	-0.19056752
237	0x3d9e43ac	0.07727751
238	0x3e50d156	0.20392355
239	0x3e2dc692	0.1697028
240	0x3e458048	0.19287217
241	0x3ea609ef	0.32429454
242	0xbcef5a61	-0.0292179
243	0xbe33d408	-0.17561352
244	0xbdd20029	-0.10253937
245	0xbe7621eb	-0.24036376
246	0x3d9309b9	0.07179589
247	0x3eb3a38f	0.35085723
248	0xbe37ff99	-0.17968597
249	0x3dd62022	0.104553476
250	0x3e1f54eb	0.15559737
251	0xbdf3b01d	-0.11898825
252	0x3e6d2e53	0.23162203
253	0x3e8a4e1c	0.27012718
254	0xbd8ced72	-0.068812266
255	0x3e9be4f9	0.3044813

linear2.weight f4 [3, 256]
0	0x3d2fb0d2	0.04289324
1	0x3bc0ca63	0.0058835014
2	0xbd7783de	-0.060428493
3	0xbd20f9ca	-0.039300717
4	0xbd8a7c21	-0.06761957
5	0xbdda5015	-0.10659806
6	0x3d3a2462	0.045444854
7	0xbc35a266	-0.011086082
8	0xbd85ad53	-0.065271996
9	0x39c0e43c	0.00036791142
10	0xbd7994f5	-0.060933072
11	0xbdbf0e1e	-0.093288645
12	0xbd030bd5	-0.031993706
13	0xbdc9c4b9	-0.09851975
14	0xbcf39dbc	-0.0297383
15	0xbcd926a1	-0.026507678
16	0xbc2dc900	-0.010607004
17	0xbdc2324d	-0.0948225
18	0xbc775e17	-0.015098116
19	0x3cbdd78c	0.02317407
20	0xbd4b0651	-0.04956657
21	0xbd981baa	-0.074271515
22	0x3bf85ef5	0.007579679
23	0x3ceb9823	0.028759068
24	0x3bc3a5ab	0.005970677
25	0xbc4e2f2e	-0.012584491
26	0xbdb48c18	-0.08815783
27	0x3be571ee	0.007002107
28	0x3c539bce	0.012915565
29	0xbd5794b7	-0.05263206
30	0xbda10301	-0.07861901
31	0x3cc14130	0.023590654
32	0xbc664c49	-0.014056274
33	0xbda998b6	-0.082810804
34	0xbd62f837	-0.055412497
35	0xbd353887	-0.04424336
36	0xbc8fdff1	-0.017562838
37	0x3c8d7d69	0.017271714
38	0xbc06e612	-0.008233564
39	0xbc2105d8	-0.009828053
40	0xbd9b2a2a	-0.075764015
41	0xbe074a44	-0.13211924
42	0xbd0b8536	-0.034062587
43	0xbde128fd	-0.10994146
44	0xbcef7f5f	-0.02923554
45	0x3d2c0df3	0.04200549
46	0xbc6f28e3	-0.0145971505
47	0x3b0f4170	0.0021859072
48	0xbce4bac9	-0.027921097
49	0x3d148389	0.036258254
50	0xbbed2393	-0.007236907
51	0x3ab635f4	0.0013901577
52	0x3c5fddf9	0.013663762
53	0x3b75a9f4	0.0037485333
54	0xbd0078d5	-0.031365234
55	0xbd29a2a0	-0.041414857
56	0x3d479639	0.048727248
57	0xbcef00b3	-0.029175138
58	0xbc8e6aa0	-0.017384827
59	0xbc097398	-0.008389376
60	0xbda97754	-0.08274713
61	0xbc13fc69	-0.009032347
62	0xbd96ab73	-0.0735692
63	0xbde76512	-0.112985745
64	0xbd8ac11c	-0.06775114
65	0xbd93ba1c	-0.07213232
66	0xbdcf1ee2	-0.10113312
67	0x3d5c0240	0.053713083
68	0xbccb5337	-0.024819953
69	0x3b04b28a	0.002024802
70	0x3d8a96bf	0.06767034
71	0xbbd7eb83	-0.0065893545
72	0xbc6bec90	-0.014399663
73	0xbc2de5e9	-0.010613897
74	0x3b04fbd8	0.0020291712
75	0xbccf21fa	-0.025284756
76	0x3d103040	0.035202265
77	0xbd88448b	-0.066536985
78	0xbd87529f	-0.066075556
79	0x3d3f84a5	0.04675736
80	0x3d096bd1	0.033550087
81	0xbd6b62c1	-0.057467226
82	0x3d4cb0b6	0.049973212
83	0xbd545a26	-0.051843785
84	0xbdc26d67	-0.09493523
85	0xbc9980d9	-0.018738197
86	0xbd36acee	-0.044598512
87	0xbd554804	-0.052070633
88	0x3c7eefd5	0.01556011
89	0xbc3aa3c6	-0.011391586
90	0xbda93f61	-0.08264042
91	0xbd5c4e65	-0.0537857
92	0xbdb5093b	-0.08839651
93	0xbdd56901	-0.104204185
94	0x3b24e71e	0.002516217
95	0xbd21e361	-0.039523486
96	0xbad26939	-0.0016053087
97	0xbd072156	-0.032990776
98	0xbd9e0fa7	-0.07717829
99	0xbd57f88c	-0.052727267
100	0xbdd23674	-0.10264292
101	0x3c81742f	0.015802471
102	0xbd57db67	-0.052699473
103	0xbd629a74	-0.05532308
104	0xbde1af67	-0.110197835
105	0x3dd74a71	0.105122454
106	0x3d4a7124	0.049424306
107	0xbdf69ba7	-0.12041407
108	0xbd74bee0	-0.059752345
109	0xba04c1d4	-0.0005064283
110	0xbdd4f04a	-0.10397394
111	0xbda5254b	-0.08063754
112	0x3d3aaba7	0.045573857
113	0xbc346a7b	-0.011011715
114	0xbc4ff480	-0.012692571
115	0xbcdd7135	-0.02703152
116	0x3a812ee8	0.0009855898
117	0xbdb5bf6c	-0.088744015
118	0xbd03d99e	-0.032189958
119	0xbcbdd237	-0.023171527
120	0xbd9d61a7	-0.07684641
121	0xbd5030e6	-0.050827883
122	0xbc9e5877	-0.019329293
123	0xbc6ecbbf	-0.014574944
124	0xbcff3ddf	-0.031157432
125	0xbd87d104	-0.066316634
126	0xbd553617	-0.052053537
127	0xbd36207b	-0.04446457
128	0xbd39e547	-0.04538467
129	0x3b615bdb	0.0034387026
130	0xbdb2f788	-0.08738619
131	0xbd0fc80e	-0.035102896
132	0x3ba5c8cb	0.005059337
133	0xbbb867bd	-0.005627601
134	0xbd403089	-0.046921287
135	0xbd7da473	-0.06192441
136	0xbd25ef91	-0.04051167
137	0x3da99b36	0.08281557
138	0xbc34bcf5	-0.011031379
139	0x3d56f8da	0.052483417
140	0xbbc577ae	-0.00602623
141	0x3c1113de	0.008854834
142	0xbd413adb	-0.04717527
143	0xbd93337e	-0.07187556
144	0xbd602c50	-0.05472976
145	0xbd64a1ea	-0.055818476
146	0xbca78696	-0.020449918
147	0x396452c0	0.00021774601
148	0xbcb6cf2c	-0.022315584
149	0xbd8fc460	-0.070198774
150	0xbab38d7b	-0.0013698781
151	0xbd9e25a4	-0.07722023
152	0xbd852245	-0.06500677
153	0xbd9144e9	-0.07093222
154	0xbda7be48	-0.0819059
155	0x3c0997a9	0.008397975
156	0xbdf1a39f	-0.11798786
157	0x3d963768	0.07334787
158	0xbd006624	-0.03134741
159	0xbb5f3c52	-0.0034063053
160	0xbc9bb72b	-0.01900824
161	0xbd4e266a	-0.050329603
162	0xbcfad460	-0.030618846
163	0x3d0de5d7	0.03464302
164	0x3ae7ae78	0.0017675897
165	0xbd860c1f	-0.06545281
166	0x3c427568	0.011868812
167	0xbdb0a0cd	-0.0862442
168	0xbcf8106f	-0.030281274
169	0xbd6190ed	-0.055069853
170	0x3d69e233	0.057100486
171	0xbdadf48d	-0.0849391
172	0xbb4772ec	-0.003043349
173	0xbd9c76f4	-0.07639876
174	0xbd9c7a07	-0.07640462
175	0x3c1deb6f	0.009638651
176	0xbce3758a	-0.027766008
177	0xbd3f68d4	-0.04673083
178	0xbdbaf108	-0.09128004
179	0xbcf4d3f2	-0.02988622
180	0xbdb52dcc	-0.08846626
181	0x3cad2ce4	0.02113957
182	0xbd1e0924	-0.038582936
183	0x3c2671ff	0.010159015
184	0x3cae2a8c	0.021260522
185	0xbd82c769	-0.06385691
186	0xbb828285	-0.0039828443
187	0xbd77b904	-0.06047918
188	0xbd330b1c	-0.043711767
189	0xbd98448b	-0.074349485
190	0x3a25c2ea	0.0006323295
191	0xbd40e0b0	-0.04708928
192	0xbc6ea363	-0.014565322
193	0x3c318d81	0.01083696
194	0xbddb4078	-0.10705656
195	0x3c220146	0.009887999
196	0xbbab072a	-0.00521936
197	0xbcdb2024	-0.026748724
198	0xbd586812	-0.052833624
199	0xbd0ed7d6	-0.034873806
200	0x3bd2ee6a	0.0064371126
201	0xbc86ec35	-0.016470054
202	0xbb63369d	-0.0034670003
203	0x3ce449f1	0.02786729
204	0xbc144f3e	-0.009052096
205	0xbd25702b	-0.040390175
206	0x3ca5bc82	0.02023149
207	0xbdbfeef8	-0.093717515
208	0xbd1586ee	-0.036505632
209	0xbd2692ff	-0.04066753
210	0xbc24ec63	-0.010066125
211	0x3c849309	0.016183393
212	0x3c4fd5db	0.012685264
213	0xbb048985	-0.002022357
214	0xbc8ead42	-0.0174166
215	0xbd643c50	-0.05572158
216	0xbd72f25e	-0.05931317
217	0xbdbe271c	-0.09284803
218	0xbaaa3df3	-0.0012988433
219	0x3d4a5850	0.049400628
220	0xbd4a3451	-0.0493663
221	0xbd94be1f	-0.07262825
222	0xbd964a9b	-0.073384486
223	0xbd8e2915	-0.069414295
224	0xbd2608fb	-0.04053591
225	0xbc74b25a	-0.0149351
226	0xbd6fef8a	-0.05857805
227	0xbc8893ff	-0.016672133
228	0xbc6c4309	-0.014420279
229	0xbd95a319	-0.07306499
230	0xbd9e3a37	-0.07725947
231	0xbd8a939f	-0.06766438
232	0xbd584f34	-0.05280991
233	0xbd768c24	-0.060192242
234	0xbd985d62	-0.07439686
235	0x3d261496	0.040546976
236	0x3cf70233	0.030152416
237	0x3c4418c0	0.0119687915
238	0x3cfa2812	0.030536685
239	0xbbb51843	-0.005526574
240	0xbbde837e	-0.0067905774
241	0xbdb0ab48	-0.08626419
242	0xbda292fa	-0.0793819
243	0xbcd9bf5c	-0.026580505
244	0xbcf55eb8	-0.029952392
245	0xbcdaa8b8	-0.02669178
246	0x3ced1251	0.028939398
247	0xbd516951	-0.05112583
248	0xbe07cade	-0.13260981
249	0xbda95e5f	-0.08269953
250	0xbc9b225d	-0.018937284
251	0x3d2b597e	0.041833393
252	0x3cd25a74	0.025677897
253	0xbdbe87af	-0.09303223
254	0x3bcf3da1	0.0063244854
255	0xbd68835f	-0.05676591

linear2.bias f4 [3]
0	0xbd64d448	-0.05586651
1	0xbdd392e6	-0.10330753
2	0xbdd60e9a	-0.10452004
