model/model.pth (torch, 16787 bytes, 4 tensors)

linear1.weight f4 [256, 11]
0	0xbdf2b610	-0.11851132
1	0x3dbfd344	0.093664676
2	0xbe5b3fb0	-0.21411014
3	0xbcfb4f20	-0.030677378
4	0xbe8958bb	-0.26825508
5	0x3e8f3233	0.27967986
6	0xbe8a687c	-0.2703284
7	0xbd96a55a	-0.07355757
8	0xbe2be9c8	-0.16788399
9	0xbe1f3f5b	-0.15551512
10	0xbe02a65d	-0.12758775
11	0xbdb1b913	-0.08677878
12	0xbe87891a	-0.26471788
13	0x3e3d8053	0.18505983
14	0x3e816b36	0.25277108
15	0x3e201f8a	0.15637031
16	0x3d5658c1	0.052330736
17	0xbd8ed0e0	-0.069734335
18	0xbe047b0f	-0.12937568
19	0x3d04becc	0.03240852
20	0x3e4d3e1a	0.20043221
21	0x3e894cee	0.26816505
22	0x3e76bcb1	0.24095418
23	0x3d6243f0	0.05524057
24	0xbe5dbf47	-0.21654998
25	0x3e5c267c	0.21499056
26	0x3e850008	0.25976586
27	0xbe875f1c	-0.2643975
28	0xbe295672	-0.16536883
29	0xbe22fe23	-0.15917258
30	0x3e122955	0.1427358
31	0xbdea8643	-0.1145139
32	0xbe37bf29	-0.17944016
33	0x3daf9b8c	0.0857459
34	0x3e8f34e0	0.27970028
35	0xbe30bdec	-0.1725995
36	0x3e968292	0.29396492
37	0xbdf16d47	-0.11788421
38	0x3e95f3f2	0.29287678
39	0xbd6bfe6d	-0.057615686
40	0x3dfd3b4e	0.12364827
41	0x3da89aca	0.08232649
42	0xbdda5d0a	-0.10662277
43	0xbd45d01e	-0.04829418
44	0x3d90204d	0.07037411
45	0x3e9145dc	0.2837361
46	0xbe95123e	-0.2911548
47	0xbdb1faa3	-0.08690383
48	0xbd799fa5	-0.060943265
49	0x3e900517	0.28128883
50	0xbdd45090	-0.103669286
51	0x3e43fef3	0.19140224
52	0x3d674b4e	0.0564683
53	0xbdac4908	-0.08412367
54	0xbd5be6d5	-0.053686935
55	0xbdec29e0	-0.115314245
56	0x3d739c34	0.05947514
57	0xbdc4aeef	-0.096036784
58	0xbe97c2c6	-0.29640788
59	0xbe99951a	-0.29996568
60	0x3e9ec2ef	0.31008098
61	0xbc8da96a	-0.017292697
62	0x3e60e002	0.21960452
63	0xbdf6aae9	-0.12044317
64	0x3de8e426	0.11371641
65	0xbd4d0ab4	-0.050059035
66	0x3e3bcdb5	0.1834019
67	0xbe964dd6	-0.2935626
68	0x3c337e5c	0.010955419
69	0x3e73d090	0.23810029
70	0xbe4fb201	-0.20282747
71	0x3e604cb8	0.21904266
72	0x3e7c3367	0.24628983
73	0xbd72bf9a	-0.059264757
74	0x3e8bfd43	0.2734166
75	0xbe0f0a21	-0.13968708
76	0x3e83a0eb	0.25708708
77	0xbe00c45f	-0.1257491
78	0x3c9a0c28	0.018804625
79	0xbe04d427	-0.12971555
80	0xbdfa3965	-0.122179784
81	0xbe89ffa8	-0.26952863
82	0x3d2ac634	0.041692927
83	0xbe92d689	-0.28679302
84	0x3e7392b7	0.23786436
85	0xbdf897b3	-0.12138309
86	0x3aeb3090	0.001794355
87	0x3da562d4	0.080754906
88	0xbb61fbad	-0.0034482286
89	0xbe392ee7	-0.18084298
90	0x3dc639c2	0.09678985
91	0x3e93c0aa	0.2885793
92	0x3e07632b	0.13221423
93	0x3e4aa369	0.19788899
94	0x3e1b024c	0.15137595
95	0xbe3ff613	-0.18746214
96	0x3d050060	0.03247106
97	0x3dda83d7	0.10669678
98	0xbd4ff5ed	-0.050771642
99	0x3e6bc912	0.23025921
100	0xbe8f7d7b	-0.28025422
101	0x3e8241c5	0.25440803
102	0x3e63beb5	0.22240718
103	0x3e205b28	0.15659773
104	0x3e050c21	0.12992908
105	0xbc72811c	-0.01480129
106	0xbe26dd8e	-0.16295454
107	0xbce0137a	-0.027353037
108	0x3e33dead	0.17565413
109	0x3e605c0d	0.21910115
110	0x3e16f0fe	0.14740369
111	0x3d7fc1c8	0.062440664
112	0x3d8409e1	0.06447197
113	0xbe47644a	-0.19471851
114	0x3e89df82	0.26928335
115	0xbe4cb355	-0.19990285
116	0x3d882b0a	0.06648834
117	0xbe5739a9	-0.2101809
118	0x3dcfe325	0.10150746
119	0x3e76a60b	0.24086778
120	0xbb6ef9d8	-0.0036464836
121	0xbe0ea931	-0.13931729
122	0x3e00b4c5	0.12568958
123	0x3e861d06	0.26194018
124	0xbe8e6b08	-0.27816033
125	0x3db7f850	0.08982909
126	0xbddcb3e4	-0.10776499
127	0x3e26f7e7	0.16305505
128	0x3e7c267e	0.24624059
129	0xbd74317c	-0.059617504
130	0xbe81608e	-0.25268978
131	0xbe80f596	-0.25187367
132	0xbe855f93	-0.2604948
133	0x3e926aee	0.28597206
134	0x3deb1be6	0.114799306
135	0xbe287c47	-0.16453658
136	0xbe92bd03	-0.2865983
137	0x3e089347	0.13337432
138	0x3e0801cc	0.13281935
139	0x3cedfa09	0.02904989
140	0xbe648bc0	-0.22318935
141	0x3e8d4299	0.27589872
142	0x3dfb228f	0.12262451
143	0x3e14d819	0.1453556
144	0x3e3c1c4a	0.18370166
145	0x3dc62d48	0.096766055
146	0x3e8c9852	0.2745996
147	0x3ce339f1	0.02773759
148	0x3e75459b	0.23952334
149	0x3e34424f	0.1760342
150	0x3d9717f1	0.07377613
151	0xb85a92f5	-5.2112115e-05
152	0xbe466b2f	-0.19376825
153	0x3db4bbc3	0.08824875
154	0xbe895d8d	-0.26829186
155	0xbe187ed0	-0.14892125
156	0xbb086cdc	-0.0020816838
157	0x3e94f1df	0.29090783
158	0xbd7b15d8	-0.06130013
159	0x3e29e70a	0.1659204
160	0xbe921700	-0.28533173
161	0x3c95fbab	0.018308481
162	0x3de6196f	0.1123532
163	0xbd47a065	-0.04873695
164	0x3cd73eae	0.026275005
165	0xbcef5fa4	-0.02922041
166	0xbe72467a	-0.23659697
167	0x3de79da8	0.113093674
168	0xbe8b9036	-0.27258462
169	0xbcb48d5d	-0.022040064
170	0x3d87569b	0.066083156
171	0x3dbb868b	0.091565214
172	0x3e805455	0.2506434
173	0x3dc49a71	0.0959977
174	0x3e64bbb9	0.22337236
175	0x3e952d2f	0.29136035
176	0xbdb587c1	-0.08863784
177	0xbda95f08	-0.08270079
178	0xbe863e1b	-0.26219258
179	0xbe4d708c	-0.20062464
180	0x3e175dc2	0.1478186
181	0x3e103499	0.14082564
182	0xbc28c122	-0.010299953
183	0xbca2d7da	-0.019878317
184	0x3dd7e0a8	0.10540897
185	0x3e3fc4c2	0.18727401
186	0xbea0d432	-0.31411892
187	0xbd0da078	-0.034576863
188	0xbe30e8df	-0.17276333
189	0x3d309300	0.04310894
190	0xbe25d489	-0.16194357
191	0x3e8bddab	0.27317557
192	0x3dbf85ac	0.09351668
193	0x3e031628	0.1280142
194	0xbe8de66d	-0.27714863
195	0xbe62356f	-0.22090696
196	0xbe8dbb4c	-0.2768196
197	0x3e51b6d6	0.20479903
198	0x3e2102f3	0.15723781
199	0x3d1581f9	0.036500905
200	0x3e99ba47	0.3002493
201	0xbe403c59	-0.18773021
202	0x3e69f238	0.22846305
203	0x3c79808d	0.015228403
204	0x3e2f121b	0.1709675
205	0xbe73523e	-0.23761842
206	0xbe51caa9	-0.20487465
207	0xbd931c13	-0.07183089
208	0xbd0a0542	-0.03369642
209	0xbe79378a	-0.24337593
210	0x3dd33d49	0.103144236
211	0x3ddefa45	0.10887579
212	0xbe685d46	-0.22691831
213	0xbe9ea94d	-0.3098854
214	0xbd6346e1	-0.055487517
215	0x3e8be3c7	0.27322218
216	0x3e9d0995	0.30671373
217	0xbdb8d75b	-0.09025451
218	0xbe3e1139	-0.18561257
219	0xbc749e12	-0.014930265
220	0xbe5ab7ad	-0.21359129
221	0xbe722c32	-0.23649672
222	0xbe7f441c	-0.24928325
223	0xbc3f4507	-0.011674172
224	0x3d7692dc	0.06019865
225	0xbe9df665	-0.30852047
226	0x3e6776ac	0.22603863
227	0x3e759902	0.23984149
228	0xbe88b1c1	-0.26698115
229	0x3e09cf08	0.13457882
230	0x3e093088	0.1339742
231	0x3e81c9a5	0.25349155
232	0xbd849760	-0.06474185
233	0xbcee02c1	-0.029054048
234	0x3e917a23	0.28413495
235	0x3d760f78	0.060073346
236	0x3e04c82f	0.12966989
237	0xbe805b14	-0.25069487
238	0x3dbc74b4	0.09201947
239	0x3e9dd96d	0.30829945
240	0xbe046305	-0.12928398
241	0x3e90ca90	0.28279543
242	0xbe026fc4	-0.12737948
243	0xbd6a72e5	-0.05723848
244	0xbd5cd166	-0.053910635
245	0x3dc55ba3	0.09636619
246	0x3c510a90	0.012758866
247	0xbe2764f0	-0.16347098
248	0xbe69cf66	-0.22833022
249	0x3e8a612c	0.2702726
250	0xbe8be310	-0.27321672
251	0xbe878104	-0.2646562
252	0x3c44c496	0.01200976
253	0xbd32abcc	-0.04362087
254	0x3e805eb0	0.2507224
255	0xbdd937dc	-0.106063575

linear1.bias f4 [256]
0	0x3cd27677	0.025691254
1	0x3e90a197	0.28248283
2	0xbc912a99	-0.017720507
3	0x3e0e8a35	0.1391991
4	0xbd942093	-0.072327755
5	0x3e907412	0.28213555
6	0xbe118c0a	-0.14213577
7	0x3e5f9f32	0.21838072
8	0xbe303903	-0.17209248
9	0x3e792c8d	0.24333401
10	0xbc6a0788	-0.014284022
11	0xbe29b47b	-0.16572754
12	0xbe434b02	-0.19071582
13	0xbde698a0	-0.1125958
14	0xbdf4908c	-0.11941633
15	0x3e82b4e9	0.25528648
16	0x3e0d1038	0.13775718
17	0xbe777934	-0.24167329
18	0x3e2cebbc	0.168868
19	0x3e59c845	0.21267803
20	0x3db7a4a4	0.089669496
21	0xbdc60a0f	-0.09669887
22	0x3e1334b9	0.14375581
23	0xbe5d885d	-0.2163405
24	0x3c71034a	0.014710257
25	0xbe03a1ba	-0.12854663
26	0xbd309d64	-0.04311885
27	0xbdbacb65	-0.09120826
28	0xbe947494	-0.28995192
29	0xbdba9a8b	-0.09111508
30	0xbe43c8a4	-0.19119507
31	0x3e8d8c91	0.27646306
32	0xbe96aaad	-0.2942709
33	0xbe39cf14	-0.181454
34	0x3d870b30	0.06593931
35	0x3dc84c6e	0.09780203
36	0xbcc42aca	-0.023946185
37	0x3d86d9c5	0.06584505
38	0x3e5e71d6	0.21723112
39	0x3d36dbd1	0.044643227
40	0x3de09bed	0.109672405
41	0xbcd3788c	-0.025814317
42	0xbe86457d	-0.2622489
43	0x3e996cdd	0.2996587
44	0xbe272ab2	-0.1632488
45	0x3d8e3b9f	0.069449656
46	0xbe712bd6	-0.23551878
47	0xbd9def91	-0.07711709
48	0xbe7b958f	-0.24568771
49	0x3e42f554	0.19038898
50	0xbc06b598	-0.008222006
51	0x3defbda9	0.11706097
52	0x3e9ae44a	0.30252296
53	0xbe989e6e	-0.29808372
54	0x3e8dfc6a	0.2773164
55	0x3e54d182	0.20783046
56	0x3e079b0d	0.13242741
57	0xbdb48ea0	-0.08816266
58	0x3d1b2ba4	0.037883416
59	0xbc01e46f	-0.007927998
60	0xbe749f87	-0.2388898
61	0x3e9fb3f0	0.3119197
62	0xbe93587d	-0.2877845
63	0xbd847dda	-0.06469317
64	0x3df7f3ef	0.121070735
65	0xba11c55a	-0.0005560719
66	0xbd048024	-0.032348767
67	0xbe0c1e20	-0.13683367
68	0xbd3e286e	-0.046425276
69	0x3e17f166	0.1483818
70	0x3dd6a4e7	0.104806714
71	0xbd8d8b3c	-0.069113225
72	0xbe0e99cd	-0.13925858
73	0xbe5fbce1	-0.21849395
74	0xbd740aab	-0.059580486
75	0x3e475e6c	0.19469613
76	0xbe70e276	-0.23523888
77	0xbe275e3c	-0.16344541
78	0xbdc6bbf6	-0.097038195
79	0x3e49d5c4	0.19710451
80	0xbd8c7297	-0.06857794
81	0x3d3c912e	0.04603689
82	0x3e2a1c23	0.16612296
83	0xbe0d4bc2	-0.1379843
84	0x3e3a790a	0.18210235
85	0xbe054908	-0.1301614
86	0xbdab7285	-0.08371452
87	0x3e02fe46	0.1279231
88	0x3d55c197	0.052186575
89	0xbe9570ee	-0.2918772
90	0x3dc58b66	0.09645729
91	0x3dfa8725	0.12232808
92	0x3de825cf	0.113353364
93	0xbe8793b0	-0.26479864
94	0x3e189454	0.14900333
95	0xbe86bae4	-0.2631446
96	0xbe794134	-0.2434128
97	0x3e8b1695	0.27165666
98	0xbe66588b	-0.22494714
99	0xbe57880a	-0.21047989
100	0xbdad6221	-0.08465982
101	0xbdb4475c	-0.08802673
102	0xbe3f2c8f	-0.18669342
103	0xbe3b33dc	-0.18281502
104	0xbd6266f5	-0.05527397
105	0xbe761e66	-0.24035034
106	0xbdd35e78	-0.10320753
107	0xbdd07067	-0.10177689
108	0xbe87015e	-0.2636823
109	0xbda0df2a	-0.07855065
110	0xbc31a386	-0.01084221
111	0xbe820dcd	-0.25401154
112	0xbe455216	-0.19269595
113	0x3dc0c043	0.09411671
114	0x3e3b9877	0.1831988
115	0x3e2e6f83	0.17034726
116	0xbd55a47a	-0.05215881
117	0x3e75934a	0.23981968
118	0x3dc9934a	0.09842546
119	0x3e602a67	0.21891175
120	0x3e477178	0.19476879
121	0xbd634738	-0.05548784
122	0x3da277fd	0.07933042
123	0xbe04dec4	-0.12975603
124	0x3d220e1a	0.03956423
125	0x3c174082	0.009231688
126	0x3e58c3ec	0.21168488
127	0xbe0bdb2a	-0.13657823
128	0x3df41043	0.11917164
129	0x3d016ec5	0.03159978
130	0xbe383713	-0.17989759
131	0xbdd96e9c	-0.106168
132	0xbc98f5c5	-0.01867188
133	0xbba1fc38	-0.004943397
134	0x3e3b0f78	0.1826762
135	0x3e76142b	0.24031131
136	0x3e8c558f	0.27409026
137	0x3e72add8	0.23699129
138	0xbd8c04e3	-0.068368696
139	0xbe6c58dc	-0.23080772
140	0x3decbaa1	0.11559034
141	0x3e4bbc7d	0.19896121
142	0xbda5f300	-0.08102989
143	0xbe87d63a	-0.2653063
144	0x3e5245da	0.20534459
145	0xbe8b3fa1	-0.27196983
146	0x3e9bb4c0	0.3041134
147	0xbe66748e	-0.225054
148	0xbc89b097	-0.016807837
149	0xbe9a4244	-0.30128682
150	0xbe9ed898	-0.31024623
151	0x3dbb4daa	0.091456726
152	0x3d541269	0.05177537
153	0xbd8c7ffa	-0.06860347
154	0xbdaa05c2	-0.083018795
155	0xbe59de0c	-0.2127611
156	0x3e9aacfe	0.30210108
157	0x3df29345	0.11844496
158	0x3e7ae1a0	0.24500132
159	0xbe7a2d0d	-0.24431248
160	0xbe275fa5	-0.16345079
161	0xbe30603b	-0.17224209
162	0xbd916fac	-0.07101378
163	0x3d87ebb1	0.066367514
164	0x3e29ff40	0.16601276
165	0xbe64d5ce	-0.22347185
166	0xbd9987b4	-0.074965864
167	0x3e020838	0.12698448
168	0x3db2a598	0.08722991
169	0x3d8c1b0d	0.06841097
170	0xbd7f50ba	-0.062332846
171	0xbe82a91e	-0.2551965
172	0xbe137c9d	-0.14403005
173	0x3d36f83d	0.044670332
174	0x3e85d0f7	0.2613599
175	0x3e47b620	0.19503069
176	0xbc4797e1	-0.012182207
177	0xbd465bd7	-0.04842743
178	0x3db817c6	0.089889094
179	0x3d41f48e	0.047352366
180	0x3e85c403	0.26126108
181	0xbdec1d3d	-0.11529014
182	0xbe8cf24a	-0.27528602
183	0x3c7b4037	0.015335134
184	0x3de17a84	0.11009696
185	0xbe5cd0fd	-0.21564098
186	0xbe336ee2	-0.17522767
187	0x3dca0527	0.09864264
188	0xbd86727f	-0.06564807
189	0xbe8c5d0a	-0.27414733
190	0xbe6edd0c	-0.2332651
191	0x3e9e38c4	0.30902684
192	0x3c171006	0.009220129
193	0xbe691731	-0.22762753
194	0xbe946571	-0.28983644
195	0x3e727b4b	0.23679845
196	0x3db1671a	0.08662243
197	0x3d22bb0d	0.039729167
198	0x3e439701	0.19100572
199	0xbdcbf82c	-0.099594444
200	0xbc14cf03	-0.009082559
201	0x3b316ad2	0.0027071727
202	0xbc0672ba	-0.008206064
203	0xbe0c9b16	-0.13731036
204	0xbe7173c6	-0.2357932
205	0x3ce347d3	0.02774421
206	0xbde02408	-0.109443724
207	0x3eab2502	0.33426672
208	0x3da10d52	0.07863869
209	0xbe831af1	-0.25606492
210	0x3e97902d	0.29602185
211	0x3e8a6d31	0.2703643
212	0xbdba0890	-0.090836644
213	0xbe0d837f	-0.13819693
214	0x3e9085bd	0.28227034
215	0xbe59bca6	-0.2126337
216	0x3d90551d	0.07047484
217	0xbb84fadf	-0.0040582265
218	0xbe775600	-0.241539
219	0xbe5341c4	-0.20630556
220	0x3e8553b4	0.26040423
221	0xbb294a00	-0.002583146
222	0xbe187721	-0.14889194
223	0xbc2c6b52	-0.010523634
224	0xbea673b1	-0.3251014
225	0xbe4c9346	-0.19978055
226	0xbcb5f305	-0.022210607
227	0xbe89265e	-0.26787084
228	0x3dc5c2ed	0.0965632
229	0x3e240abd	0.16019721
230	0x3da3f17d	0.080050446
231	0xbe430267	-0.19043885
232	0x3e83be23	0.25731
233	0x3e81f552	0.25382477
234	0x3e82ac85	0.25522247
235	0xbd9f44a6	-0.077767655
236	0x3e6e0190	0.23242784
237	0xbda8908f	-0.08230697
238	0xbcb8ca31	-0.02255735
239	0x3e172665	0.1476074
240	0xbe8fff0c	-0.28124273
241	0x3bc8ddeb	0.0061299703
242	0x3dd2ad50	0.10286963
243	0x3e1466d9	0.14492358
244	0x3e21f946	0.15817747
245	0x3e577c03	0.210434
246	0xbe032528	-0.12807143
247	0xbc5c87c2	-0.013460102
248	0xbe671e67	-0.22570191
249	0xbe42b32d	-0.19013663
250	0xbe5f9556	-0.21834311
251	0xbe764df7	-0.24053179
252	0x3e84de8c	0.2595104
253	0xbe5141aa	-0.20435205
254	0xbe31e241	-0.17371465
255	0xbe00c68b	-0.12575738

linear2.weight f4 [3, 256]
0	0xbdaaefbb	-0.08346506
1	0xbba26368	-0.004955698
2	0xbca574a5	-0.020197222
3	0x3cb1060c	0.021609329
4	0x3c4fbdc8	0.012679525
5	0xbd1fefa5	-0.039046902
6	0x3a9d7044	0.0012011607
7	0xbd1fcc47	-0.039013173
8	0x3d2a2d67	0.041547205
9	0x3b3b36d5	0.0028566618
10	0xbd6cbd7d	-0.057797898
11	0x3d574aba	0.0525615
12	0x3d11439d	0.03546487
13	0x3b4dd9ee	0.0031410414
14	0xbd8c5fe9	-0.06854231
15	0x3cee8423	0.029115742
16	0xbd51f947	-0.05126312
17	0xbd222df1	-0.039594594
18	0xbb897278	-0.004194554
19	0xbd18b5a9	-0.03728262
20	0x3cd34447	0.025789393
21	0x3d10daf9	0.03536508
22	0xbd63da79	-0.055628274
23	0xbd0db12f	-0.034592804
24	0x3c9d720f	0.019219426
25	0xbbf3c423	-0.007439153
26	0xbd3e645d	-0.046482433
27	0x3bd0ff42	0.0063780854
28	0xbcf934f0	-0.03042075
29	0xbb8f1cde	-0.004367455
30	0xbcf73444	-0.03017629
31	0xbd275d22	-0.040860303
32	0x3c9feef8	0.019523129
33	0x3ab6ba65	0.0013941048
34	0xbcd83d6f	-0.026396481
35	0xbcc4497e	-0.023960825
36	0xbd12dd09	-0.035855327
37	0x3a3c6946	0.0007187318
38	0xbc046db0	-0.008082792
39	0x3d839e8d	0.064267255
40	0xbd9de2c0	-0.07709265
41	0xbd81d1b8	-0.06338829
42	0xbd3c78d2	-0.04601366
43	0xba8a96f4	-0.0010573552
44	0x3d3b04af	0.045658763
45	0xbcdbe02c	-0.026840292
46	0xbdacadde	-0.084316
47	0xbc6d03d2	-0.014466243
48	0x3cfec412	0.031099353
49	0xbd0fb6f9	-0.035086606
50	0xbd1bafa3	-0.038009297
51	0x3d362877	0.044472184
52	0x3c82b4eb	0.015955409
53	0xbd29ae35	-0.041425902
54	0xbd769c84	-0.06020786
55	0x3d177f93	0.0369869
56	0x3d1e22ee	0.03860753
57	0xbd30aa2a	-0.04313103
58	0xbd2b2942	-0.041787393
59	0xbd8d73d4	-0.06906858
60	0x3b8e12db	0.004335744
61	0xbc24f0df	-0.010067194
62	0x3d5497cc	0.051902577
63	0x3d002c4b	0.03129224
64	0x3adf3409	0.0017029057
65	0xbd0e471b	-0.03473578
66	0xbd668ce0	-0.056286693
67	0x3c9c41d2	0.019074354
68	0xbd8c3390	-0.06845772
69	0xbd35f468	-0.044422537
70	0xbd1c4d69	-0.03815976
71	0xbcfd8c58	-0.03095071
72	0x3c77c888	0.015123494
73	0x3d5ad643	0.053426992
74	0x3d1546bb	0.036444407
75	0x3c85e110	0.01634267
76	0xbbf57d92	-0.007491776
77	0xbbec2f12	-0.0072077597
78	0x3c9589d9	0.018254207
79	0xbc572b0f	-0.013132825
80	0x3d3b6fb0	0.04576081
81	0xbce8b480	-0.028406382
82	0x3d0ea1ff	0.03482246
83	0x3ca31bb6	0.019910675
84	0xbd5a1165	-0.053239245
85	0x3c7f886e	0.015596492
86	0x3c3bc388	0.0114601925
87	0xbbad6871	-0.0052919914
88	0xbd857642	-0.065166965
89	0xbd4bbc8c	-0.04974036
90	0x3c9ad84c	0.018901967
91	0x3ab75562	0.0013987238
92	0x3c376184	0.011192683
93	0x3c9b4f40	0.018958688
94	0xbd2dd7cb	-0.042442124
95	0xbd8be9f8	-0.068317354
96	0xbd2bb29f	-0.041918393
97	0x3d135784	0.035972133
98	0xbc242748	-0.010019131
99	0x3d425d76	0.047452413
100	0x3d91349a	0.07090111
101	0x3c8aba37	0.016934497
102	0x3c0c2d38	0.008555703
103	0x3c9f3c72	0.019438002
104	0xbd4f8dc6	-0.050672315
105	0x3d1c3a84	0.038141742
106	0xbce4150b	-0.027842065
107	0x3d342741	0.043982748
108	0x39d4bb0e	0.00040575158
109	0xbd7e3c97	-0.0620695
110	0xbd9a0209	-0.075199194
111	0x3d160748	0.036628038
112	0x3c539ca2	0.012915762
113	0xbd009ceb	-0.03139965
114	0xbd2f50f9	-0.04280183
115	0xbd2d55fc	-0.04231833
116	0xbdbea547	-0.09308868
117	0xbc644994	-0.013933558
118	0x3a471966	0.0007595032
119	0xbd5e80c5	-0.054322023
120	0xbd26a578	-0.040685147
121	0xbce03501	-0.027369024
122	0xbd8458e9	-0.06462271
123	0xbd7ac92c	-0.06122701
124	0xbd657f84	-0.05602981
125	0xbbbdf49a	-0.005796981
126	0xbd884b22	-0.066549554
127	0x3d2632b3	0.040575694
128	0x3d045e37	0.032316413
129	0x3cc72138	0.024307832
130	0xbc391845	-0.01129729
131	0xbd82e844	-0.063919574
132	0x3be8166b	0.0070827506
133	0xbd7c9365	-0.061664004
134	0xbd321cbf	-0.043484446
135	0x3cf37221	0.029717507
136	0xbccb70e2	-0.0248341
137	0xbcb335cd	-0.02187624
138	0xbd4e8731	-0.050421897
139	0xbd20ec3c	-0.03928779
140	0xbd73afca	-0.059493817
141	0xbd0d0e21	-0.034437303
142	0x3c838067	0.016052438
143	0xbd9accdd	-0.07558606
144	0xbd0a3bcd	-0.033748437
145	0xbb5cd4dd	-0.0033696212
146	0xbd01d36a	-0.03169576
147	0xbd65588a	-0.05599264
148	0xbc0d0fe6	-0.0086097475
149	0x3ca9cefe	0.020728584
150	0x3d2206cc	0.039557263
151	0xbd7d675f	-0.06186616
152	0x3d49863c	0.04920028
153	0xbcabd45e	-0.020975288
154	0xbd94e39e	-0.07269977
155	0xbd9c4e80	-0.0763216
156	0xbd1d40be	-0.03839182
157	0x3d661dcc	0.05618076
158	0x3c113dc3	0.008864823
159	0xbd670adb	-0.056406837
160	0xbd923cd4	-0.07140508
161	0x3abc5080	0.0014367253
162	0x3d88e9f3	0.06685247
163	0xbd36d95d	-0.044640888
164	0xbc1cc912	-0.009569423
165	0x3d13addf	0.03605449
166	0xbc182d7e	-0.00928819
167	0x3d0d5fc3	0.034515154
168	0xbcf5caba	-0.030003894
169	0xbd459748	-0.048239976
170	0xbc70bb0b	-0.014693032
171	0x3d101720	0.035178304
172	0x3c5721cf	0.013130619
173	0x3bc28eb0	0.00593742
174	0x3cc13008	0.023582473
175	0xbd160037	-0.0366213
176	0x3cb6e88d	0.022327686
177	0x3d99992a	0.07499917
178	0xbd11f7fa	-0.03563688
179	0x3ca06fc2	0.01958454
180	0x3d6f1748	0.058371812
181	0xbd82bdca	-0.06383856
182	0xbc4c0c53	-0.01245411
183	0xbd95f3f9	-0.07321925
184	0xbd2cf263	-0.042223345
185	0xbd15db8c	-0.03658633
186	0x3d77359e	0.060353868
187	0xbc140165	-0.009033536
188	0xbb950ad9	-0.0045484123
189	0xbd1c0d8e	-0.038098864
190	0xbd4fa7df	-0.050697204
191	0x3c6b7bb8	0.014372759
192	0xbd82ec9a	-0.063927844
193	0x3d47d910	0.04879099
194	0xbd9f8e09	-0.07790763
195	0xbceb1306	-0.028695595
196	0x3c77ed46	0.015132254
197	0x3cf14975	0.029453972
198	0x3b1f25ce	0.0024284008
199	0x3c0d22f2	0.008614289
200	0x3ce71092	0.028206144
201	0x3c57a76d	0.013162476
202	0x3cdad588	0.026713148
203	0x3d073a95	0.033014853
204	0x3ce0849b	0.027406981
205	0xbcccc13a	-0.024994481
206	0x3c355470	0.011067495
207	0xbc487b8c	-0.012236487
208	0x3c3dd13e	0.011585532
209	0xbd2f3c60	-0.042782187
210	0x3b8e7e1c	0.0043485295
211	0xbd4492ac	-0.04799144
212	0x3b81cc11	0.003961094
213	0x3ccbdc69	0.024885373
214	0xbd276125	-0.04086413
215	0xbcf97de8	-0.030455545
216	0x3c1b9d13	0.009497899
217	0x3c7e548d	0.015523088
218	0x3ba3e0b2	0.005001151
219	0x3c6b41c5	0.014358942
220	0x3d38d59d	0.045125592
221	0x3c9f8d5d	0.019476587
222	0x3cdfeac1	0.02733362
223	0x3cb8d2fa	0.022561539
224	0xbca23a0a	-0.019803066
225	0xbd79a775	-0.060950715
226	0xbd09c9b5	-0.03363963
227	0x3d05d2a4	0.032671586
228	0xbd9a8589	-0.07545001
229	0xbc0c747e	-0.008572696
230	0x3ce019d6	0.02735607
231	0x3da27bc3	0.07933762
232	0x3cd58368	0.026063636
233	0xbc238c1b	-0.009982134
234	0xbd1ee366	-0.038791083
235	0x3d34cfb9	0.044143412
236	0xbcb22cd4	-0.021749891
237	0x3d9515ff	0.07279586
238	0xbb64e78f	-0.0034928059
239	0x3c34fde1	0.011046858
240	0xbd0731a1	-0.033006314
241	0x3cf4d736	0.029887777
242	0xbd26f33a	-0.040759303
243	0x3c29e10c	0.010368597
244	0xbcd9e443	-0.026598101
245	0xbc3ec0cb	-0.011642645
246	0x3a227bec	0.00061982754
247	0x3d8359ab	0.06413587
248	0x3cf9c136	0.030487638
249	0x3c9f5e40	0.019454122
250	0xbb803c2a	-0.003913422
251	0x3c7198c8	0.014745899
252	0xbd693065	-0.05693092
253	0xbb49704d	-0.0030737102
254	0x3c5e4c61	0.013568015
255	0x3d1f130e	0.03883653

linear2.bias f4 [3]
0	0x3d147e5d	0.036253322
1	0xbbfd124d	-0.007723129
2	0xbcafcf7b	-0.02146124
