model/model.pth (torch, 16787 bytes, 4 tensors)

linear1.weight f4 [256, 11]
0	0x3dcd31a7	0.10019236
1	0x3ecbdf0c	0.3981861
2	0xbf0a1bc5	-0.5394862
3	0x3c85ba11	0.016324075
4	0xbe7dd888	-0.24789631
5	0xbd93b5a4	-0.072123796
6	0x3d8e92ef	0.06961619
7	0x3ecbc957	0.39802048
8	0x3eaa1bbd	0.33224288
9	0x3dfae667	0.12250977
10	0xbd74e346	-0.059787057
11	0xbe42ee4e	-0.19036219
12	0x3d24445c	0.040104255
13	0xbd1a4a88	-0.037668735
14	0x3e11c0df	0.1423373
15	0xbe9edc69	-0.31027535
16	0xbd8bfefe	-0.06835745
17	0x3ef5424d	0.47902146
18	0xbc9ea5b5	-0.019366125
19	0x3f063760	0.52428246
20	0xbf31e476	-0.6948923
21	0xbeb6da04	-0.35713208
22	0xbee865cf	-0.45390174
23	0xbf06e30b	-0.5269019
24	0x3f099aad	0.5375164
25	0x3e6e4613	0.23268919
26	0x3c40fb6f	0.011778696
27	0x3e73d5e7	0.23812066
28	0xbede06ac	-0.43364465
29	0x3c98a51a	0.018633414
30	0x3eb9673f	0.36211583
31	0xbd53bb79	-0.05169246
32	0xbe9044bb	-0.28177437
33	0xbea7822e	-0.32716507
34	0x3f0a85b9	0.54110295
35	0xbee68085	-0.45019928
36	0x3dd880df	0.10571455
37	0xbb31ab14	-0.0027110027
38	0x3e48fe7e	0.19628331
39	0x3db2af44	0.087248355
40	0xbdf115c3	-0.11771729
41	0xbd68829a	-0.056765176
42	0x3b6cc0cd	0.003612566
43	0x3d94f3f5	0.072730936
44	0x3daeba1c	0.08531591
45	0xbcb95860	-0.022625148
46	0xbb88ff40	-0.004180819
47	0x3d636368	0.055514723
48	0xbe83683c	-0.25665462
49	0x3b8ad340	0.0042366087
50	0x3d96932c	0.073522896
51	0xbe8aaafb	-0.27083573
52	0xbe5e53b9	-0.21711625
53	0xbe987bda	-0.2978199
54	0xbe0e9fc1	-0.13928129
55	0x3de8b0ed	0.11361871
56	0x3ef21653	0.47282657
57	0x3bc364ec	0.0059629586
58	0xbe9338b9	-0.28754213
59	0xbcc1a1f8	-0.023636803
60	0xbe30a72d	-0.17251272
61	0xbd9f4110	-0.077760816
62	0x3ee0e7ff	0.43927
63	0x3e5a6bb4	0.21330148
64	0x3ef12893	0.47101268
65	0x3e557752	0.20846298
66	0xbefdb061	-0.4954863
67	0x3f40172a	0.75035346
68	0xbdc4c5dd	-0.09608052
69	0xbe768200	-0.24073029
70	0x3dfca1bb	0.12335535
71	0xbd503f69	-0.050841723
72	0xbe30b2a9	-0.17255653
73	0xbdb6b1ae	-0.089206085
74	0xbe2c708a	-0.16839805
75	0xbc91d6cc	-0.017802618
76	0xbe9d2299	-0.30690458
77	0xbf2e8054	-0.68164563
78	0x3d846e2d	0.06466327
79	0x3cca3a8d	0.024686122
80	0xbdec8d0a	-0.115503386
81	0x3e0f9095	0.14019997
82	0xbdad787b	-0.084702455
83	0x3cbda143	0.023148185
84	0x3e53807a	0.20654479
85	0x3e0ec52b	0.13942401
86	0xbe4a4f5e	-0.19756839
87	0xbe5cf2bf	-0.21576975
88	0xbe886fd4	-0.26647818
89	0xbe9c480c	-0.30523717
90	0x3f303743	0.6883432
91	0xbe370b9b	-0.17875521
92	0x3e34548e	0.1761038
93	0xbe242a00	-0.16031647
94	0x3daf24fe	0.085519776
95	0xbdac1927	-0.08403235
96	0xbe015338	-0.12629402
97	0xbe9730ae	-0.29529327
98	0x3e8f6ee7	0.280143
99	0xbce50855	-0.027958075
100	0xbe7a5043	-0.2444468
101	0xbdfdbf59	-0.12390012
102	0x3e215e41	0.15758611
103	0xbe565cb7	-0.20933805
104	0xbe89c9b0	-0.26911688
105	0x3eba2f3b	0.3636416
106	0x3d88dc50	0.06682646
107	0xbf1750d6	-0.5910772
108	0x3ef9a3de	0.48757833
109	0xbe37d2e9	-0.1795155
110	0x3ee1a6de	0.44072622
111	0x3dbbef66	0.09176521
112	0x3ef23c74	0.47311747
113	0xbdea8fa2	-0.11453177
114	0xbeb8d593	-0.36100444
115	0x3c1ae528	0.009454049
116	0xbe05e864	-0.13076931
117	0x3eb08e2b	0.34483466
118	0x3ec6d96f	0.38837764
119	0x3ebd6e17	0.36998054
120	0x3e54ee98	0.20794141
121	0x3ecc997f	0.39960858
122	0xbe188b3d	-0.14896865
123	0x3f489f05	0.78367645
124	0xbe8ee35c	-0.27907836
125	0xbe2b33e6	-0.16719016
126	0xbe0196d0	-0.12655187
127	0xbd866e26	-0.06563978
128	0x3e85e3c6	0.2615034
129	0x3ddfa20d	0.109195806
130	0x3e8f1c43	0.2795125
131	0x3c20fb19	0.009825491
132	0xbd3a8b45	-0.045542974
133	0x3f14f6e3	0.5818922
134	0xbdd348ae	-0.10316597
135	0x3e5b4f32	0.2141693
136	0xbf4f6aca	-0.8102232
137	0xbedd97d6	-0.43279904
138	0x3f001732	0.50035393
139	0xbf2b10ae	-0.66822326
140	0xbe9d4e46	-0.3072378
141	0xbef86f0e	-0.48522228
142	0x3e8ef968	0.27924657
143	0xbe8be996	-0.2732665
144	0x3dd45efb	0.103696786
145	0xbda079a1	-0.07835699
146	0x3ddbf0ed	0.10739312
147	0xbec24c7e	-0.37948984
148	0xbeb15c87	-0.34640905
149	0x3e94e7da	0.2908314
150	0xbe7a41cc	-0.24439162
151	0x3eb4fc22	0.35348612
152	0x3e894328	0.2680905
153	0xbec8a757	-0.3919017
154	0xbd55e8bc	-0.052223906
155	0xbe775a6f	-0.24155591
156	0x3e3e9342	0.18610862
157	0x3efdc6b6	0.49565667
158	0xbf01bd58	-0.5067954
159	0xbf00af1c	-0.50267196
160	0xbdd1da09	-0.10246665
161	0x3ecb43da	0.39700204
162	0xbf281327	-0.65654224
163	0xbdb8826a	-0.090092495
164	0xbf10eb09	-0.56608635
165	0x3e62bfe1	0.22143508
166	0x3e69a4b6	0.22816738
167	0x3efe13ed	0.49624577
168	0x3d4850e2	0.04890526
169	0xbe5d067b	-0.21584503
170	0xbec0ddee	-0.3766932
171	0x3d6f39ff	0.05840492
172	0x3ee849ed	0.453689
173	0x3ea60538	0.32425857
174	0x3ee2ef49	0.44323185
175	0xbd2198d0	-0.039452374
176	0xbe938ee9	-0.2881997
177	0x3ea9b0bb	0.33142647
178	0x3e8e32eb	0.27773222
179	0x3e30a3f6	0.17250046
180	0x3e16b31e	0.14716765
181	0xbec2f363	-0.38076314
182	0xbf010c24	-0.5040915
183	0x3f10f471	0.5662299
184	0x3ed2c359	0.41164663
185	0x3be16ed6	0.0068796678
186	0x3d7547f0	0.059883058
187	0x3e10451f	0.14088868
188	0xbea225a1	-0.31669334
189	0x3f5b1766	0.8558258
190	0x3ded9d65	0.11602286
191	0xbe574883	-0.21023755
192	0x3e129a6b	0.14316718
193	0xbc7b0e43	-0.0153232245
194	0xbe16eead	-0.14739485
195	0x3d47f6de	0.048819415
196	0x3e846d62	0.25864702
197	0xbe4a0565	-0.1972862
198	0xbd8230ca	-0.06356962
199	0x3e134f13	0.14385633
200	0x3d8bc4e4	0.06824663
201	0xbd32ea0a	-0.04368023
202	0xbe8588c1	-0.26080897
203	0xbd6c9944	-0.057763353
204	0x3c8acacc	0.016942404
205	0x3e3ef7b9	0.18649186
206	0x3e601976	0.21884713
207	0xbe61e77b	-0.22060959
208	0xbddcb9d8	-0.107776344
209	0x3ed5251d	0.41629878
210	0x3e1f8b2e	0.15580437
211	0xbe86062f	-0.26176593
212	0xbc48d9a2	-0.012258919
213	0xbea3af8e	-0.31969875
214	0xbe8c544a	-0.27408057
215	0x3d86c78c	0.06581029
216	0x3d9e0355	0.07715479
217	0x3ec485e5	0.38383403
218	0x3e33bd0d	0.17552586
219	0xbe8f747d	-0.2801856
220	0xbf0391aa	-0.5139414
221	0xbe09ca53	-0.13456087
222	0x3ece5ff2	0.40307575
223	0x3e9849b1	0.29743722
224	0xbe56f9e6	-0.20993766
225	0x3e577e0d	0.21044178
226	0xbd913ce6	-0.070916936
227	0x3ea45ed6	0.32103604
228	0xbe8bcee7	-0.2730629
229	0x3e278248	0.16358292
230	0xbe559a13	-0.20859556
231	0x3e351bc3	0.17686372
232	0xbe49ab96	-0.19694361
233	0x3e919338	0.28432631
234	0xbea47659	-0.32121542
235	0x3e9a3a99	0.3012283
236	0x3ef0eeba	0.47057134
237	0xbd1df238	-0.038561076
238	0xbe90c592	-0.28275734
239	0xbe03ee03	-0.12883763
240	0xbefb3c3e	-0.490694
241	0x3e64dc08	0.2234956
242	0xbe52031a	-0.20508996
243	0xbce70c50	-0.028204113
244	0xbd604864	-0.054756537
245	0xbe3d1e7d	-0.18468662
246	0x3bb1e900	0.005429387
247	0xbe913667	-0.28361818
248	0x3e282414	0.16420013
249	0xbd5bbd0c	-0.053647086
250	0xbe9522c0	-0.29128075
251	0x3dceea24	0.101032525
252	0x3dde4b88	0.1085425
253	0x3debb69e	0.11509441
254	0x3ef732ec	0.48281038
255	0xbeee0f4e	-0.46496052

linear1.bias f4 [256]
0	0xbdbffb2f	-0.09374081
1	0xbe2de0b6	-0.16980252
2	0x3d3dd3a7	0.046344426
3	0x3eb96dc3	0.36216554
4	0xbe253bab	-0.16136043
5	0xbe50b9de	-0.20383403
6	0x3e4a78b9	0.19772615
7	0x3eb9222f	0.36158893
8	0x3e536fa2	0.20648053
9	0xbe6f6627	-0.23378812
10	0xbe2819a4	-0.16416031
11	0xbc76c855	-0.015062411
12	0x3e166c39	0.14689721
13	0xbbad24e7	-0.00528394
14	0x3e0fe634	0.1405266
15	0xbe195cac	-0.14976758
16	0xbe89d3e9	-0.26919487
17	0xbe1a144e	-0.15046808
18	0xbed991ea	-0.42494136
19	0xbdef2615	-0.116771854
20	0xbda254a9	-0.07926304
21	0xbe198105	-0.14990623
22	0xbe949c0d	-0.29025307
23	0xbc985904	-0.018597133
24	0xbe531905	-0.20615013
25	0x3be415a5	0.006960588
26	0xbda9ea2f	-0.0829662
27	0xbe24a70b	-0.16079347
28	0x3ec15652	0.3776117
29	0xbe504ac1	-0.20341016
30	0xbe79bdd2	-0.24388817
31	0xbdfb624d	-0.12274609
32	0xbe457f94	-0.19286948
33	0xbd9a5f99	-0.07537765
34	0xbef760f4	-0.48316157
35	0xbe926ef7	-0.28600284
36	0x3e03ec85	0.12883194
37	0xbeb315a6	-0.34977454
38	0xbd9d542a	-0.07682069
39	0xbea6b50d	-0.32560006
40	0xbe24c365	-0.16090162
41	0x3e5256b8	0.20540893
42	0xbe84936e	-0.2589373
43	0xbe316f6f	-0.17327665
44	0x3df29af6	0.11845963
45	0xbe3dc62b	-0.18532626
46	0xbd7b7255	-0.061388332
47	0x3c962883	0.018329864
48	0x3dd77a42	0.10521366
49	0x3ebe7636	0.37199563
50	0xbd2c1304	-0.042010322
51	0x3d94a697	0.07258337
52	0xbd182e2c	-0.037153408
53	0xbe33d21f	-0.17560624
54	0xbc922380	-0.017839193
55	0xbc9781bb	-0.018494477
56	0xbeb42ee0	-0.35192013
57	0xbd688845	-0.05677058
58	0xbe979cd3	-0.29611835
59	0xbdf1a2db	-0.1179864
60	0x3e5bcd79	0.214651
61	0xbe1d9c2b	-0.15391605
62	0x3cdf0fc3	0.027229195
63	0xbdf90313	-0.121587895
64	0x3e48e17f	0.1961727
65	0x3e9ed5ec	0.31022584
66	0x3ef0f401	0.4706116
67	0xbe2873ba	-0.16450396
68	0x3e196cd1	0.14982916
69	0xbd84e499	-0.06488914
70	0xbe54e7e8	-0.2079159
71	0x3d172b77	0.036906686
72	0xbe6de417	-0.2323154
73	0x3dcb8707	0.09937864
74	0xbeb3a41b	-0.3508614
75	0x3eaef0c4	0.34168065
76	0xbe9bf389	-0.3045924
77	0xbe4390d4	-0.19098216
78	0x3eba75cc	0.36417997
79	0x3e3197b5	0.17343028
80	0xbe97972b	-0.2960752
81	0xbe400f23	-0.18755774
82	0xbe6e9a64	-0.23301083
83	0xbd965039	-0.0733952
84	0xbcb1ff16	-0.02172808
85	0x3eb2736e	0.3485369
86	0xbea59215	-0.32338014
87	0xbdb245ee	-0.08704744
88	0xbe45cdc7	-0.19316779
89	0x3d5a41b1	0.053285304
90	0xbd8de978	-0.06929296
91	0x3dab27ac	0.08357176
92	0xbdb8ec02	-0.0902939
93	0xbe003e97	-0.12523876
94	0xbe5355e4	-0.20638233
95	0xbe91e7d2	-0.28497177
96	0xbe2671d5	-0.16254361
97	0xbe62a928	-0.2213484
98	0xbe158758	-0.14602411
99	0xbeb22c0a	-0.34799224
100	0x3e799e06	0.24376687
101	0xbeccdfa9	-0.4001439
102	0x3d8ebd42	0.06969692
103	0xbdbe385f	-0.09288096
104	0x3ea23f51	0.31688932
105	0x3e3b7308	0.183056
106	0xbe0693ea	-0.13142362
107	0x3ed1ddfa	0.40989667
108	0xbe5fae23	-0.21843772
109	0xbd9ce23a	-0.07660337
110	0x3e0e443e	0.1389322
111	0xbcb82c01	-0.02248192
112	0xbe4b3fb4	-0.1984852
113	0xbe027f44	-0.1274386
114	0xbdd1da05	-0.10246662
115	0xbe023af5	-0.12717803
116	0xbee0bf2c	-0.43895853
117	0xbe491e92	-0.19640568
118	0x3dd8be6d	0.10583196
119	0x3e18e970	0.149328
120	0x3de155d7	0.11002701
121	0xbd723464	-0.059131995
122	0x3d86abde	0.0657575
123	0x3e34f00e	0.17669699
124	0xbebfbc9c	-0.37448585
125	0x3e00ea68	0.12589419
126	0xbe28ba6f	-0.16477369
127	0xbd0b29f8	-0.03397557
128	0xbdd5b66c	-0.10435185
129	0x3d949be0	0.07256293
130	0x3def27d1	0.11677516
131	0xbd521be0	-0.051296115
132	0x3e0ace60	0.13555288
133	0xbdde874b	-0.10865649
134	0xbea974e2	-0.33096987
135	0x3e8c88a1	0.2744799
136	0xbe6f2aaf	-0.23356126
137	0x3dcbfda0	0.099604845
138	0xbda23fb6	-0.07922308
139	0xbd210062	-0.039307006
140	0x3c32ca71	0.010912524
141	0xbe1f737b	-0.15571396
142	0xbe12c8fa	-0.14334479
143	0x3e04a676	0.12954125
144	0xbe684c1e	-0.22685286
145	0xbd940adc	-0.07228634
146	0x3ca3205f	0.019912897
147	0xbe5fc529	-0.21852554
148	0x3e7b6a2b	0.24552219
149	0x3bbb55ef	0.005717031
150	0x3c3f6632	0.01168208
151	0x3d14d77c	0.036338314
152	0xbe6b9c8a	-0.23008934
153	0x3d72fd2b	0.05932347
154	0x3ed7c848	0.4214499
155	0x3fa064ba	1.2530739
156	0xbe915c3b	-0.2839068
157	0x3d36ecd5	0.044659454
158	0xbc7849a9	-0.015154281
159	0x3dd1cd3d	0.10244224
160	0xbe5094bc	-0.20369238
161	0x3f16b3eb	0.58868283
162	0x3dcb4dc2	0.099269405
163	0x3de128f5	0.1099414
164	0x3ed153cb	0.4088424
165	0xbd9acd60	-0.075587034
166	0x3e1880f1	0.14892937
167	0xbe8eb566	-0.2787277
168	0x3e0e8de7	0.13921319
169	0xbe5c1d14	-0.21495467
170	0x3e8304ab	0.255895
171	0xbebedd18	-0.37278056
172	0xbe98c8e7	-0.29840776
173	0x3eac73e7	0.33682176
174	0xbdae6f5b	-0.08517333
175	0xbda82539	-0.08210225
176	0xbdde04db	-0.1084077
177	0x3dde57ac	0.10856566
178	0x3ebc8790	0.36822176
179	0xbda831a0	-0.0821259
180	0x3e8989e7	0.26863024
181	0xbeb1469c	-0.34624183
182	0xbe2dbf5c	-0.16967529
183	0xbeab07ba	-0.33404332
184	0xbea6802c	-0.32519662
185	0x3df2600a	0.11834724
186	0xbe8b6748	-0.27227235
187	0xbe3a3bb9	-0.18186845
188	0xbe91106e	-0.28332847
189	0x3f2be12a	0.6714045
190	0x3e4374eb	0.1908757
191	0x3d4f93ce	0.050678067
192	0xbe085acf	-0.1331589
193	0xbea0e61f	-0.31425568
194	0xbd731f26	-0.059355877
195	0xbea24518	-0.3169334
196	0xbe856b9e	-0.26058668
197	0x3e6cfbcb	0.23142926
198	0xbde64b42	-0.11244823
199	0x3e80d646	0.25163478
200	0xbe637def	-0.22216009
201	0xbe32afd6	-0.17449889
202	0xbe547ebd	-0.20751472
203	0xbe1a9d9e	-0.15099189
204	0x3d8592e7	0.0652216
205	0x3e3af994	0.18259269
206	0xbdc5d64b	-0.09660014
207	0x3e8a6105	0.27027145
208	0xbdb7d9fe	-0.089771256
209	0x3dd59a15	0.104297794
210	0x3ee48176	0.4463002
211	0xbca5b834	-0.020229436
212	0xbde3e3bc	-0.11127421
213	0xbe748fb1	-0.23882939
214	0x3e850307	0.25978872
215	0x3ef0e12f	0.470468
216	0x3e0d3efd	0.1379356
217	0xbe32b81a	-0.17453042
218	0xbe56ce1f	-0.20977066
219	0xbea56aef	-0.32308146
220	0x3da6c1b9	0.081424184
221	0xbe42d837	-0.19027792
222	0xbda0df81	-0.0785513
223	0xbc9e67d9	-0.019336628
224	0xbd5fcdb1	-0.054639522
225	0xbe79c6a6	-0.24392185
226	0xbc6b0b8e	-0.014346017
227	0xbea3c46e	-0.319858
228	0x3dbdf882	0.09275915
229	0xbe8f8828	-0.28033566
230	0xbe2e0266	-0.16993102
231	0xbdb5ec96	-0.08883016
232	0xbe87b6c2	-0.2650662
233	0x3dda9b14	0.1067411
234	0xbd8cf58a	-0.0688277
235	0xbe263962	-0.16232827
236	0x3f04f50d	0.5193642
237	0x3d6d9427	0.058002617
238	0xbdca68b6	-0.09883253
239	0x3de8863c	0.11353728
240	0xbd432e4e	-0.04765158
241	0xbe8b396b	-0.27192244
242	0xbeb05cf2	-0.34445912
243	0x3d4d3a2c	0.050104305
244	0xbeccadb6	-0.3997628
245	0x3dea6d9b	0.11446687
246	0x3f60b077	0.87769264
247	0x3f23852f	0.638751
248	0x3d8bc143	0.06823971
249	0xbd9aa364	-0.075506955
250	0x3e19210d	0.14954014
251	0xbdb4e0e8	-0.0883196
252	0x3e136620	0.14394426
253	0xbd747ac5	-0.059687395
254	0xbc36a113	-0.0111468015
255	0xbe3ebba5	-0.18626268

linear2.weight f4 [3, 256]
0	0xbe1650be	-0.14679238
1	0xbf068afb	-0.5255582
2	0x3e9822ce	0.29714054
3	0x3e8bcd41	0.27305034
4	0x3d483988	0.04888299
5	0xbe810995	-0.25202623
6	0x3dde6e06	0.10860829
7	0x3e0ebd64	0.13939434
8	0x3e3d4d8b	0.18486612
9	0xbe9636ed	-0.2933878
10	0xbe297d7d	-0.16551776
11	0xbd97ce29	-0.07412369
12	0x3e93fb35	0.28902593
13	0xbeab92be	-0.33510393
14	0x3ee5e1e2	0.44898897
15	0xbe37d665	-0.17952879
16	0x3ddf8746	0.10914473
17	0xbd36d6b5	-0.044638354
18	0x39aca2fc	0.0003292783
19	0xbe113f20	-0.14184237
20	0x3e85c0dc	0.26123703
21	0xbe8f8c63	-0.28036794
22	0xbc22a8e8	-0.009927966
23	0xbd895123	-0.06704929
24	0xbd09c4be	-0.033634894
25	0x3e937857	0.2880275
26	0x3da66e2b	0.081264816
27	0x3b7d1cc0	0.0038621873
28	0x3e256eb1	0.16155507
29	0xbd758b0e	-0.059947066
30	0xbead3a86	-0.33833712
31	0xbf24006d	-0.6406315
32	0x3d793454	0.06084092
33	0x3e972690	0.29521608
34	0xbd9bac74	-0.07601252
35	0x3c6e376c	0.014539581
36	0x3ef33b48	0.47506166
37	0xbdd76600	-0.10517502
38	0xbef07cfc	-0.46970356
39	0xbe1826e5	-0.14858587
40	0xbe355cbb	-0.17711155
41	0x3c80c6d0	0.015719801
42	0xbdf9658a	-0.1217757
43	0xbf160258	-0.58597326
44	0x3db009fd	0.08595655
45	0xbeb39ea7	-0.3508198
46	0xbe1abf29	-0.15111984
47	0xbe104024	-0.14086968
48	0xbd294c31	-0.041332427
49	0x3e8bd0a8	0.2730763
50	0xbdb673f0	-0.08908832
51	0x3d759578	0.059956998
52	0x3e811d84	0.2521783
53	0xbcd291a4	-0.025704212
54	0xbe04f2e4	-0.1298328
55	0xbde99778	-0.114058435
56	0xbeb551c3	-0.35413942
57	0xbd760bc3	-0.06006981
58	0xbe7d8b2d	-0.24760123
59	0x3d450158	0.048096985
60	0x3ed219d6	0.41035336
61	0xbe578f4b	-0.21050756
62	0xbe3cf3dd	-0.18452401
63	0xbe6e8ede	-0.23296687
64	0x3ebc16ab	0.36736044
65	0x3eb5ff30	0.35546255
66	0x3e55621a	0.20838204
67	0xbec3136d	-0.38100758
68	0x3e103a77	0.14084803
69	0xbe665df7	-0.22496782
70	0x3e0f904e	0.14019892
71	0xbf1690c5	-0.5881465
72	0xbda19caa	-0.078912094
73	0x3ee1b5fc	0.44084156
74	0xbe64b43f	-0.22334383
75	0x3e83e579	0.2576101
76	0xbd245354	-0.04011853
77	0xbdf8b0d9	-0.12143106
78	0x3eb706a3	0.3574725
79	0x3bc4f48a	0.0060105966
80	0xbeb8258d	-0.3596615
81	0xbf1fd974	-0.6244118
82	0x3b61dea0	0.003446497
83	0xbe760132	-0.24023893
84	0xbec56a91	-0.38557866
85	0x3e7bb7bf	0.24581812
86	0xbdddd836	-0.108322546
87	0xbe6f0078	-0.23340023
88	0xbdb4bfa0	-0.08825612
89	0x3e9df6e7	0.30852434
90	0xbd7b325b	-0.06132732
91	0xbc420b2c	-0.011843484
92	0xbdab4f34	-0.08364716
93	0xbdb6d9b7	-0.089282446
94	0xbe358cc5	-0.1772948
95	0xbda8caf7	-0.082418375
96	0xbebddd04	-0.37082684
97	0xbdccdd47	-0.10003143
98	0xbbed03ec	-0.0072331335
99	0xbea4383a	-0.32074147
100	0x3e4d37c1	0.200408
101	0xbe5c1010	-0.21490502
102	0x3e98c774	0.2983967
103	0xbf002abd	-0.50065213
104	0x3edc5e40	0.43040657
105	0x3e462883	0.19351391
106	0xbd116448	-0.035496026
107	0x3ebd5bd4	0.36984122
108	0x3e3c3b29	0.18381943
109	0x3c4cdebd	0.012504277
110	0x3ccc31a0	0.024926007
111	0xbe8a5ab5	-0.2702233
112	0xbed1bd73	-0.4096485
113	0xbe01e215	-0.126839
114	0x3cb36d2f	0.021902649
115	0xbeb42d51	-0.35190824
116	0xbe93b841	-0.28851512
117	0xbe0e2fb1	-0.1388538
118	0xbed866de	-0.4226598
119	0x3e955931	0.2916961
120	0x3ec420bb	0.3830622
121	0x3e0d45e5	0.13796194
122	0x3f0bb3fb	0.54571503
123	0x3db1a0e9	0.08673269
124	0xbe6da5d8	-0.23207796
125	0xbebbe366	-0.3669693
126	0xbe9f01bc	-0.3105601
127	0xbdf75d97	-0.12078398
128	0xbd47defa	-0.04879663
129	0xbc038de4	-0.008029435
130	0x3db7b080	0.089692116
131	0xbdca2d8e	-0.0987197
132	0xbbd4594d	-0.006480372
133	0x3e58fcaf	0.21190141
134	0xbe3af123	-0.18256049
135	0x3ea77f95	0.32714525
136	0xbeefd9f3	-0.4684597
137	0x3e1459ff	0.14487456
138	0xbe741785	-0.23837097
139	0x3e131dcf	0.1436684
140	0xbe4f8794	-0.20266563
141	0xbe297fcf	-0.16552661
142	0xbee2e9f8	-0.4431913
143	0x3e51bd69	0.2048241
144	0xbd4500b4	-0.048096374
145	0xbe53b764	-0.20675427
146	0x3e275071	0.1633928
147	0xbd292d83	-0.04130317
148	0xbd89e6e2	-0.067334905
149	0xbdfa5881	-0.12223912
150	0xbe84d243	-0.25941667
151	0xbe369a21	-0.17832233
152	0xbf181551	-0.59407526
153	0xbf005554	-0.501302
154	0x3ee692b1	0.45033792
155	0x3ea3d7cc	0.32000577
156	0xbdb67e84	-0.0891085
157	0xbe440796	-0.19143519
158	0x3eb9bbef	0.36276194
159	0x3dda90ff	0.10672187
160	0xbd8c3c00	-0.068473816
161	0x3e904f8c	0.2818569
162	0xbe8fa0fc	-0.2805251
163	0x3d14db44	0.03634192
164	0x3f033c27	0.5126366
165	0xbe997cf8	-0.29978156
166	0x3ed62d8c	0.41831625
167	0xbea964de	-0.33084768
168	0x3ed76421	0.4206858
169	0xbe1aaef0	-0.15105796
170	0x3eb9ae1f	0.36265656
171	0x3cb530c5	0.022117982
172	0x3e491279	0.19635953
173	0x3e5bc105	0.2146035
174	0xbce260f9	-0.02763413
175	0x3e4d8245	0.20069225
176	0xbe872dab	-0.2640203
177	0xbec79c8e	-0.3898663
178	0x3e5a190c	0.21298617
179	0x3bf36cfd	0.007428764
180	0x3ed85089	0.42248943
181	0x3ca74106	0.020416748
182	0x3e39ecac	0.1815669
183	0x3c82d198	0.015969083
184	0xbd69ceef	-0.057082113
185	0x3e703a8e	0.23459837
186	0xbe341d75	-0.17589362
187	0xbecd4465	-0.40091243
188	0xbc173e21	-0.009231121
189	0x3ee03188	0.4378779
190	0x3ec3484d	0.381411
191	0xbe52dba3	-0.20591597
192	0xbf2918f2	-0.6605369
193	0xbc9af28f	-0.01891449
194	0xbe672c25	-0.22575434
195	0x3d01653f	0.031590696
196	0xbe9c7b11	-0.30562642
197	0xbeb7e53d	-0.35917082
198	0xbde10719	-0.10987682
199	0x3e216de5	0.15764578
200	0xbe300c87	-0.17192279
201	0xbbcb4de7	-0.006204355
202	0xbf485e6b	-0.7826907
203	0xbe50cc97	-0.20390545
204	0xbdc77783	-0.09739592
205	0x3e9f626a	0.3112977
206	0xbe4299c2	-0.19003966
207	0x3e582681	0.21108438
208	0x3d1438e9	0.036187086
209	0x3ecdaa74	0.40169108
210	0x3e5d7069	0.21624912
211	0x3b9c77d1	0.0047750254
212	0xbe6f0938	-0.2334336
213	0x3b853c53	0.004066029
214	0x3e120e54	0.14263278
215	0x3edcb289	0.43104962
216	0xbd9d9801	-0.07695008
217	0xbe347076	-0.17621025
218	0xbbb0b8da	-0.00539313
219	0xbe9459d2	-0.28974777
220	0x3ea2fafc	0.3183211
221	0xbe097647	-0.13424025
222	0x3dea4a83	0.11439993
223	0xbb516a67	-0.003195429
224	0xbe890a70	-0.26765776
225	0xbca8feb8	-0.020629272
226	0x3edff0f0	0.43738508
227	0xbcb8c384	-0.022554167
228	0xbe8f045b	-0.2793301
229	0xbd537489	-0.05162481
230	0xbd87a131	-0.06622542
231	0xbd90c1f0	-0.07068241
232	0xbed3fd6a	-0.41404277
233	0x3ee6c7ee	0.4507441
234	0xbd7e9192	-0.062150545
235	0xbe4f9bf8	-0.20274341
236	0x3ed243b4	0.41067278
237	0x3dfd8360	0.123785734
238	0xbd6a6ed0	-0.057234585
239	0x3dcff20d	0.101535894
240	0x3d3922f0	0.045199335
241	0xbe0dca53	-0.13846712
242	0xbc786d24	-0.01516274
243	0x3e82dbd2	0.25558335
244	0xbe2dc724	-0.16970497
245	0xbf0dfa4a	-0.55460036
246	0x3e913483	0.28360376
247	0x3e314bd0	0.17314076
248	0x3d03acc0	0.03214717
249	0xbef67bb1	-0.48141244
250	0x3f16468f	0.58701414
251	0xbc2ed3ae	-0.010670586
252	0xbea69227	-0.3253338
253	0xbdb59fa1	-0.088683374
254	0xbeb5feb8	-0.35545897
255	0xbda5c547	-0.08094268

linear2.bias f4 [3]
0	0x3e80d4ab	0.25162253
1	0x3dcb4b79	0.09926505
2	0x3dc7dd5b	0.09759017
