model/model.pth (torch, 16787 bytes, 4 tensors)

linear1.weight f4 [256, 11]
0	0x3dfb6de8	0.12276822
1	0x3eb9392d	0.36176434
2	0xbf04a8ec	-0.51820254
3	0x3ca6f10a	0.020378608
4	0xbe5941a5	-0.21216448
5	0xbdb342fa	-0.08753009
6	0x3d8b5e17	0.068050556
7	0x3ed18ac3	0.4092618
8	0x3eb8b641	0.3607655
9	0x3dd5f6a0	0.104474306
10	0xbd26ab31	-0.040690605
11	0xbe3836ea	-0.17989698
12	0x3d05865c	0.03259884
13	0xbcf49c90	-0.029859811
14	0x3e0c6d24	0.13713509
15	0xbe961977	-0.29316303
16	0xbd8dab9c	-0.069174975
17	0x3ef9d3e9	0.48794487
18	0xbccbdb46	-0.024884831
19	0x3f0866eb	0.5328204
20	0xbf320e05	-0.6955264
21	0xbeb2acb7	-0.34897396
22	0xbeec06f0	-0.46099043
23	0xbf050015	-0.5195325
24	0x3f0ca0c6	0.5493282
25	0x3e5efb59	0.21775569
26	0x3c8071a6	0.015679192
27	0x3e664c73	0.224901
28	0xbed3ccfa	-0.41367322
29	0x3c7b399f	0.015333562
30	0x3eb639c6	0.35590953
31	0xbd6ed21c	-0.058305845
32	0xbe92899d	-0.28620616
33	0xbe989a6b	-0.29805312
34	0x3f0b3142	0.54372036
35	0xbede1f1c	-0.4338311
36	0x3e099adc	0.1343798
37	0xbca72c53	-0.020406878
38	0x3e4201e2	0.1894603
39	0x3d928052	0.071533814
40	0xbdeecc5e	-0.11660074
41	0xbd95ca27	-0.07313948
42	0xbc02c3e5	-0.007981275
43	0x3d8bd2b0	0.06827295
44	0x3daeba1c	0.08531591
45	0xbcb95860	-0.022625148
46	0xbb88ff40	-0.004180819
47	0x3d636368	0.055514723
48	0xbe83683c	-0.25665462
49	0x3b8ad340	0.0042366087
50	0x3d96932c	0.073522896
51	0xbe8aaafb	-0.27083573
52	0xbe5e53b9	-0.21711625
53	0xbe987bda	-0.2978199
54	0xbe0e9fc1	-0.13928129
55	0x3dee89aa	0.11647351
56	0x3ef176ed	0.47161046
57	0x3b03c3a4	0.0020105625
58	0xbe8aae71	-0.27086213
59	0xbc05efc2	-0.0081748385
60	0xbe265894	-0.16244727
61	0xbd9ac1d2	-0.075564995
62	0x3ee8b843	0.4545308
63	0x3e7f7edd	0.24950738
64	0x3ef0964e	0.46989673
65	0x3e695e8c	0.22789973
66	0xbee93b88	-0.4555323
67	0x3f3cabcf	0.7369966
68	0xbdd9b8d1	-0.10630954
69	0xbe666b99	-0.22501983
70	0x3dca02f7	0.09863847
71	0xbdaa28f0	-0.083085895
72	0xbe32c90d	-0.17459507
73	0xbd91bae7	-0.07115727
74	0xbe660a09	-0.22464766
75	0xbd7d82a6	-0.061892174
76	0xbe96d26f	-0.29457423
77	0xbf2e8054	-0.68164563
78	0x3d3f9a6e	0.046778135
79	0x3d1821b3	0.037141513
80	0xbdcb045e	-0.09912942
81	0x3dffeb3e	0.12496041
82	0xbdb827f6	-0.08991997
83	0x3b603954	0.0034213858
84	0x3e4a8906	0.19778833
85	0x3e02ca5f	0.12772511
86	0xbe51d8f6	-0.2049292
87	0xbe68b9bf	-0.22727107
88	0xbe974d4b	-0.29551157
89	0xbe9c7b7e	-0.30562967
90	0x3f34fd28	0.70698786
91	0xbe459cf1	-0.1929815
92	0x3e2f83a9	0.17140068
93	0xbe321c66	-0.17393646
94	0x3d91ab22	0.07112719
95	0xbdeecb15	-0.116598286
96	0xbe097e32	-0.13427046
97	0xbe8c8341	-0.2744389
98	0x3e815da8	0.25266767
99	0xbd08ba2a	-0.033380665
100	0xbe7e0a6c	-0.24808663
101	0xbd9259aa	-0.07146008
102	0x3e2b82c9	0.1674911
103	0xbe5396d2	-0.20663002
104	0xbe8abdb3	-0.27097854
105	0x3eb10545	0.34574333
106	0x3d3b3029	0.045700226
107	0xbf174b6a	-0.5909945
108	0x3ef0f1d7	0.4705951
109	0xbe312894	-0.17300636
110	0x3ed58bcd	0.41708222
111	0x3dcc8cd4	0.09987798
112	0x3ee9c7c5	0.45660225
113	0xbe0af645	-0.13570507
114	0xbeae6da3	-0.3406802
115	0x3c0e475f	0.008684008
116	0xbe05bd47	-0.13060485
117	0x3eaf7533	0.34269103
118	0x3ec8f3db	0.39248547
119	0x3ec3f43e	0.3827228
120	0x3e545c6b	0.2073838
121	0x3ebd2c5b	0.36947903
122	0xbdff0b96	-0.12453382
123	0x3f496909	0.78675896
124	0xbe9f43f4	-0.31106532
125	0xbe28d7a1	-0.16488506
126	0xbe0bdb6a	-0.13657919
127	0xbd6ed28c	-0.058306262
128	0x3e832c6b	0.25619826
129	0x3e037368	0.12836993
130	0x3e9a5e8d	0.30150262
131	0x3be55388	0.006998483
132	0xbc85ea2f	-0.016347019
133	0x3f1d54b6	0.61457384
134	0xbdf0e727	-0.11762839
135	0x3e78280b	0.24234025
136	0xbf4f6aca	-0.8102232
137	0xbedd97d6	-0.43279904
138	0x3ef241b2	0.47315747
139	0xbf2ab757	-0.66686004
140	0xbe9f4a3c	-0.31111324
141	0xbee29bf7	-0.44259617
142	0x3e825414	0.25454772
143	0xbe72cf1d	-0.2371182
144	0x3db7e29b	0.089787684
145	0xbd8e897b	-0.06959816
146	0x3de640b8	0.11242813
147	0xbebe5c28	-0.37179685
148	0xbebc326c	-0.3675722
149	0x3e871812	0.26385552
150	0xbe692a6e	-0.22770092
151	0x3eb919fa	0.3615263
152	0x3e805211	0.25062612
153	0xbec1ecca	-0.37875968
154	0xbd83a3e9	-0.06427748
155	0xbe5b5463	-0.2141891
156	0x3e580245	0.21094616
157	0x3efe139c	0.49624336
158	0xbf004f9c	-0.50121474
159	0xbf017eb6	-0.5058397
160	0xbdc41e33	-0.095760725
161	0x3ece33a6	0.4027378
162	0xbf292897	-0.6607756
163	0xbdb0ae14	-0.08626953
164	0xbf0ed912	-0.55799973
165	0x3e482010	0.19543481
166	0x3e76b97b	0.24094193
167	0x3ef56162	0.4792586
168	0x3cf82e03	0.030295378
169	0xbe52ec76	-0.20598015
170	0xbec9caf0	-0.39412642
171	0x3d6facd9	0.05851445
172	0x3ee9b660	0.45646954
173	0x3ea8ed33	0.3299347
174	0x3edd87cb	0.43267664
175	0xbd04b214	-0.03239639
176	0xbe9027f8	-0.28155494
177	0x3ebf7ce2	0.37399966
178	0x3e849411	0.25894216
179	0x3e58e320	0.21180391
180	0x3e0b080d	0.1357729
181	0xbec221f2	-0.37916523
182	0xbf055f3a	-0.5209843
183	0x3f16e1b0	0.5893812
184	0x3eceab43	0.40365037
185	0x3d12b7d4	0.035819843
186	0x3d8a0cbe	0.06740712
187	0x3e072de1	0.13201095
188	0xbe9a9224	-0.3018962
189	0x3f5d2ded	0.863982
190	0x3dce1f34	0.10064545
191	0xbe726bfb	-0.23674004
192	0x3e18b942	0.1491442
193	0xbcaee63b	-0.021350017
194	0xbe0de7e4	-0.1385799
195	0x3cf333b5	0.029687742
196	0x3e80720e	0.25087017
197	0xbe5b75c3	-0.21431641
198	0xbd8230ca	-0.06356962
199	0x3e17ebee	0.14836094
200	0x3d94fe99	0.07275123
201	0xbd32ea0a	-0.04368023
202	0xbe8588c1	-0.26080897
203	0xbd6c9944	-0.057763353
204	0x3cafb1a3	0.021447008
205	0x3e3ef7b9	0.18649186
206	0x3e64b651	0.22335173
207	0xbe61e77b	-0.22060959
208	0xbddcb9d8	-0.107776344
209	0x3edb1f11	0.4279714
210	0x3e112b1a	0.14176598
211	0xbe74cd07	-0.23906337
212	0xbbb52a1c	-0.0055287015
213	0xbe9f41ca	-0.3110488
214	0xbe901ef9	-0.2814863
215	0x3d58be0e	0.052915625
216	0x3da7e5ac	0.08198103
217	0x3ed2c7e6	0.41168135
218	0x3e263981	0.16232873
219	0xbe8422fa	-0.25807935
220	0xbf0b9545	-0.5452464
221	0xbde1dd49	-0.11028535
222	0x3ecb88cd	0.39752808
223	0x3e97f00c	0.2967533
224	0xbe5a8359	-0.21339168
225	0x3e555056	0.20831427
226	0xbd61ac2a	-0.05509583
227	0x3eaa080d	0.33209267
228	0xbe8ecd6b	-0.27891096
229	0x3e38757a	0.18013564
230	0xbe55e6b8	-0.20888793
231	0x3e0cb1d4	0.13739711
232	0xbe454297	-0.19263683
233	0x3e895b67	0.26827547
234	0xbea47659	-0.32121542
235	0x3e9b6a09	0.30354336
236	0x3ee40e15	0.44541994
237	0xbd066dba	-0.032819487
238	0xbe95b897	-0.29242393
239	0xbdfa37b1	-0.122176535
240	0xbf00a9b3	-0.5025894
241	0x3e53a4f9	0.20668401
242	0xbe52031a	-0.20508996
243	0xbce70c50	-0.028204113
244	0xbd604864	-0.054756537
245	0xbe3d1e7d	-0.18468662
246	0x3bb1e900	0.005429387
247	0xbe913667	-0.28361818
248	0x3e282414	0.16420013
249	0xbd5bbd0c	-0.053647086
250	0xbe9522c0	-0.29128075
251	0x3dceea24	0.101032525
252	0x3dde4b88	0.1085425
253	0x3e19ccf8	0.15019596
254	0x3ee0e9ce	0.4392838
255	0xbede3ed6	-0.43407315

linear1.bias f4 [256]
0	0xbdb3f76c	-0.08787426
1	0xbe279612	-0.16365841
2	0x3d0db2bf	0.034594294
3	0x3eb5e1c6	0.35523814
4	0xbe253bab	-0.16136043
5	0xbe386386	-0.18006715
6	0x3e2a9ede	0.16662166
7	0x3eb30f12	0.34972435
8	0x3e3d1e87	0.18468677
9	0xbe7cd2be	-0.24689767
10	0xbe2467ac	-0.16055173
11	0xbc0a9e7b	-0.008460636
12	0x3e0f8de8	0.14018977
13	0xbc94d508	-0.018167987
14	0x3e1ad564	0.15120465
15	0xbe251d73	-0.16124515
16	0xbe8696b1	-0.26286843
17	0xbe294e6e	-0.16533825
18	0xbed7437c	-0.42043674
19	0xbdeca6c3	-0.11555245
20	0xbd804261	-0.06262661
21	0xbe2ae5db	-0.16689245
22	0xbe949c0d	-0.29025307
23	0xbc9d5511	-0.019205602
24	0xbe531905	-0.20615013
25	0x3a5eb2b9	0.00084952597
26	0xbdace0f4	-0.08441344
27	0xbe24a70b	-0.16079347
28	0x3eb365d6	0.35038632
29	0xbe7313ff	-0.23738097
30	0xbe5e5c8a	-0.21714988
31	0xbdebf906	-0.11522107
32	0xbe457f94	-0.19286948
33	0xbdaec168	-0.08532983
34	0xbee47699	-0.44621733
35	0xbe926ef7	-0.28600284
36	0x3e0db9de	0.13840434
37	0xbeae1759	-0.34002188
38	0xbdb52aed	-0.08846078
39	0xbea40322	-0.3203364
40	0xbe36cff1	-0.17852761
41	0x3e51de4a	0.20494953
42	0xbe8929a2	-0.26789576
43	0xbe2e77c6	-0.17037877
44	0x3df03be3	0.117301725
45	0xbe6068c3	-0.21914963
46	0xbda2aae6	-0.079427525
47	0x3c141534	0.009038258
48	0x3ddc95fe	0.10770796
49	0x3ec54afb	0.38533768
50	0xbd607a80	-0.054804325
51	0x3d8103d4	0.06299558
52	0xbd24dcd4	-0.04024966
53	0xbe40bd6f	-0.18822263
54	0xbbd221b1	-0.0064127077
55	0xbd0e3129	-0.03471485
56	0xbebef0a9	-0.37292984
57	0xbd431637	-0.047628608
58	0xbe9a602e	-0.30151504
59	0xbdf4a4c3	-0.11945488
60	0x3e59c262	0.21265557
61	0xbe2f64f0	-0.17128348
62	0x3cfe8a35	0.031071762
63	0xbdf9e351	-0.1220156
64	0x3e367723	0.17818885
65	0x3e9c95a7	0.30582926
66	0x3eea9ccd	0.45822755
67	0xbe276a44	-0.16349131
68	0x3e0fbf06	0.14037713
69	0xbd87e2ea	-0.06635077
70	0xbe31c8f3	-0.17361812
71	0x3cbee8e2	0.023304407
72	0xbe7d2522	-0.24721196
73	0x3dfb5895	0.12272755
74	0xbeb38075	-0.35058942
75	0x3eb3ee37	0.3514268
76	0xbe9e44aa	-0.30911762
77	0xbe32b7f8	-0.17452991
78	0x3eb320cd	0.34985963
79	0x3e29441e	0.16529891
80	0xbe88d505	-0.2672502
81	0xbe500234	-0.2031334
82	0xbe6e9a64	-0.23301083
83	0xbda48af2	-0.08034314
84	0xbcbdd594	-0.023173131
85	0x3eb8a5f9	0.36064127
86	0xbea235aa	-0.31681567
87	0xbdb59ce6	-0.088678166
88	0xbe428d33	-0.18999176
89	0x3d54ecf1	0.051983777
90	0xbd6a2291	-0.05716187
91	0x3db8689a	0.09004326
92	0xbdb27160	-0.08713031
93	0xbe0920d5	-0.1339143
94	0xbe5c5ab0	-0.2151897
95	0xbe8f40d7	-0.27979156
96	0xbe2a8eea	-0.1665608
97	0xbe79f176	-0.24408516
98	0xbe120af7	-0.14261995
99	0xbeae9253	-0.34096012
100	0x3e80bd11	0.25144246
101	0xbec1dd82	-0.3786431
102	0x3d7e2ea9	0.062056217
103	0xbdb4ab7e	-0.08821772
104	0x3eb1b2d3	0.34706745
105	0x3e3c4990	0.18387437
106	0xbe2fd08e	-0.17169401
107	0x3ebf4add	0.37361804
108	0xbe5e8ae2	-0.21732667
109	0xbdbe8fc5	-0.093047656
110	0x3e0a9730	0.13534236
111	0xbd472ff2	-0.04862971
112	0xbe42c65c	-0.1902098
113	0xbe0c3a60	-0.13694143
114	0xbdc14904	-0.09437755
115	0xbde9e428	-0.114204705
116	0xbee7578e	-0.45183986
117	0xbe74bcf3	-0.23900203
118	0x3db2fecd	0.08740006
119	0x3e1e5041	0.15460302
120	0x3dbd8595	0.092539944
121	0xbd5fb852	-0.05461914
122	0x3d574a0d	0.052560855
123	0x3e236a01	0.15958406
124	0xbec50b89	-0.38485363
125	0x3df73725	0.12071065
126	0xbe3ee6da	-0.1864275
127	0xbd23430c	-0.039858863
128	0xbdd5b66c	-0.10435185
129	0x3d87784f	0.06614744
130	0x3df31c16	0.11870591
131	0xbd945a44	-0.07243779
132	0x3dfd01c0	0.123538494
133	0xbdd60370	-0.104498744
134	0xbe986dc0	-0.29771233
135	0x3e8ab9fb	0.27095017
136	0xbe570eaa	-0.21001688
137	0x3e0eaf86	0.13934144
138	0xbdac9da1	-0.08428503
139	0xbd70d223	-0.058794152
140	0xb991ffb0	-0.00027847057
141	0xbe0758bf	-0.13217448
142	0xbe18c26d	-0.14917918
143	0x3dfdd76c	0.12394604
144	0xbe684c1e	-0.22685286
145	0xbdbf30fd	-0.09335516
146	0x3ca67213	0.020318067
147	0xbe5fc529	-0.21852554
148	0x3e78e397	0.24305569
149	0xbb81cc50	-0.0039611235
150	0x3c2d2c1e	0.0105696
151	0x3d1059a4	0.035241738
152	0xbe5898a9	-0.21151985
153	0x3d43e48f	0.047825392
154	0x3ee0621f	0.4382486
155	0x3f9b5b55	1.2137247
156	0xbe8f7f2d	-0.28026715
157	0x3d080b9b	0.033214193
158	0xbcfd470f	-0.030917672
159	0x3dc3c2a0	0.09558606
160	0xbe4249e4	-0.189735
161	0x3f14fec8	0.58201265
162	0x3db51681	0.08842183
163	0x3db942f5	0.09045974
164	0x3ec1916d	0.37806264
165	0xbdcb5776	-0.09928791
166	0x3dea4459	0.114388175
167	0xbe97e176	-0.296642
168	0x3df5272c	0.11970362
169	0xbe678893	-0.22610693
170	0x3e79a5bf	0.24379633
171	0xbebedd18	-0.37278056
172	0xbe94372b	-0.2894834
173	0x3ea87b5e	0.32906622
174	0xbd9a316b	-0.07528957
175	0xbdaa9985	-0.08330063
176	0xbdf5ba10	-0.11998379
177	0x3ded349c	0.115823
178	0x3eb6d3c0	0.35708427
179	0xbd828dfb	-0.06374737
180	0x3e89d907	0.2692339
181	0xbeb1469c	-0.34624183
182	0xbe32e837	-0.17471395
183	0xbeab07ba	-0.33404332
184	0xbeaae0ca	-0.33374625
185	0x3ded642b	0.11591371
186	0xbe7bc2ba	-0.24586001
187	0xbe49a1a9	-0.19690575
188	0xbe91106e	-0.28332847
189	0x3f285dc1	0.6576806
190	0x3e3e70a4	0.18597656
191	0x3d40c3f2	0.047061868
192	0xbdf6c54e	-0.12049352
193	0xbea0e61f	-0.31425568
194	0xbd5ef6f0	-0.054434717
195	0xbea24518	-0.3169334
196	0xbe852f71	-0.26012757
197	0x3e68debe	0.2274122
198	0xbddc91ea	-0.107700184
199	0x3e7e2b77	0.24821268
200	0xbe645b03	-0.22300343
201	0xbe17a8fe	-0.14810559
202	0xbe5b9713	-0.21444349
203	0xbe16ce1f	-0.14727066
204	0x3d73802c	0.059448406
205	0x3e357308	0.17719662
206	0xbd8c8955	-0.068621315
207	0x3e85f57c	0.26163852
208	0xbd864b77	-0.065573625
209	0x3d83f45d	0.06443093
210	0x3ee24b96	0.44198292
211	0xbccbae52	-0.024863396
212	0xbe04a707	-0.12954341
213	0xbe748fb1	-0.23882939
214	0x3e82614f	0.25464866
215	0x3ef27e68	0.47362065
216	0x3dfc6318	0.12323588
217	0xbe36e259	-0.17859782
218	0xbe56ce1f	-0.20977066
219	0xbea22f76	-0.31676835
220	0x3d5501fc	0.052003846
221	0xbe44d07a	-0.19220152
222	0xbdccbc8e	-0.099969015
223	0xbd030ffa	-0.03199766
224	0xbdb1ab0e	-0.08675204
225	0xbe842235	-0.25807348
226	0xbd1f656c	-0.038915083
227	0xbea3c46e	-0.319858
228	0x3da62a51	0.0811354
229	0xbe98478e	-0.29742092
230	0xbe228a24	-0.15873009
231	0xbdba6c58	-0.09102696
232	0xbe8d42ff	-0.27590176
233	0x3dddde45	0.1083341
234	0xbda1b81a	-0.07896443
235	0xbe1d86ab	-0.15383403
236	0x3f08fef4	0.5351403
237	0x3d7a0c49	0.061046872
238	0xbdb3ef67	-0.08785897
239	0x3dd7fd09	0.105463095
240	0xbd61b241	-0.055101637
241	0xbe83f675	-0.2577397
242	0xbeb05cf2	-0.34445912
243	0x3d37cced	0.044873167
244	0xbec93a0c	-0.393021
245	0x3dc68b12	0.09694494
246	0x3f5d6547	0.8648266
247	0x3f1a3aa2	0.60245717
248	0x3d69d0f6	0.057084046
249	0xbd552af3	-0.052042913
250	0x3e1705c9	0.147483
251	0xbd9be213	-0.076114796
252	0x3e18234a	0.14857212
253	0xbd9686be	-0.07349919
254	0xbd0b2b3c	-0.03397678
255	0xbe4371d8	-0.19086397

linear2.weight f4 [3, 256]
0	0xbe040350	-0.12891889
1	0xbf093b68	-0.5360627
2	0x3e93cd47	0.28867552
3	0x3e8596d2	0.2609163
4	0x3d483988	0.04888299
5	0xbe7b6026	-0.24548396
6	0x3db14900	0.08656502
7	0x3df81acf	0.12114488
8	0x3e3434b9	0.17598237
9	0xbe8cebdb	-0.27523693
10	0xbe213fb0	-0.15746951
11	0xbd70637a	-0.05868862
12	0x3e92c058	0.28662372
13	0xbe999b4f	-0.30001304
14	0x3ee0c310	0.4389882
15	0xbe21ad81	-0.15788843
16	0x3dd24e7a	0.102688745
17	0xbd5f7f9a	-0.05456505
18	0xbc28e790	-0.010309115
19	0xbdeceeb6	-0.11568968
20	0x3e84a0c2	0.25903898
21	0xbe80f3f7	-0.2518613
22	0xbc22a8e8	-0.009927966
23	0xbd40807f	-0.046997543
24	0xbd09c4be	-0.033634894
25	0x3e8a0c84	0.26962674
26	0x3dc47ebc	0.09594485
27	0x3b7d1cc0	0.0038621873
28	0x3e066269	0.13123478
29	0xbd35ebd0	-0.04441434
30	0xbeaacbad	-0.33358517
31	0xbf26fd41	-0.65230185
32	0x3d793454	0.06084092
33	0x3e915be1	0.2839041
34	0xbd8d5733	-0.069013976
35	0x3c6e376c	0.014539581
36	0x3eeebcd9	0.46628454
37	0xbdc1fccd	-0.09472046
38	0xbeeffd17	-0.4687278
39	0xbe0e514a	-0.13898197
40	0xbe13e84c	-0.14444083
41	0x3c74d283	0.014942768
42	0xbdf61061	-0.12014843
43	0xbf120222	-0.57034504
44	0x3db1a8db	0.08674785
45	0xbe9e90f8	-0.30969977
46	0xbe043e00	-0.12914276
47	0xbe199c29	-0.15000977
48	0xbd12792a	-0.035760082
49	0x3e8acd68	0.27109838
50	0xbd90433a	-0.070440724
51	0x3d553c55	0.05205949
52	0x3e71741a	0.23579445
53	0xb8fb2760	-0.00011975947
54	0xbe106747	-0.14101897
55	0xbdca416f	-0.09875762
56	0xbeb0905c	-0.34485137
57	0xbd6042af	-0.054751094
58	0xbe6ba42f	-0.2301185
59	0x3d783e06	0.060606025
60	0x3ed30b2e	0.41219467
61	0xbe58e7a8	-0.2118212
62	0xbe4275d7	-0.18990265
63	0xbe4456fc	-0.19173807
64	0x3eb9946e	0.36246055
65	0x3eb6f7ed	0.35736027
66	0x3e4b7407	0.1986848
67	0xbec7d8bb	-0.3903254
68	0x3e0e6e5e	0.13909289
69	0xbe59405d	-0.21215959
70	0x3e15a5ec	0.14614075
71	0xbf1910d4	-0.597913
72	0x3cfae761	0.030627908
73	0x3edfd4b8	0.4371698
74	0xbe63a2b8	-0.22230041
75	0x3e767b1a	0.24070397
76	0xbd2b9300	-0.041888237
77	0xbdf9ff05	-0.12206844
78	0x3eae2584	0.34012997
79	0x3c8bf5bf	0.017084954
80	0xbebf24e4	-0.37332833
81	0xbf1b5656	-0.60678613
82	0x3b61dea0	0.003446497
83	0xbe6cbd68	-0.23119128
84	0xbebec087	-0.37256262
85	0x3e77e487	0.2420827
86	0xbdc9a559	-0.09845991
87	0xbe786d2d	-0.24260397
88	0xbde0d95b	-0.10978957
89	0x3e9d6d3f	0.3074741
90	0xbd8afb3b	-0.067862
91	0xbc9d3d7c	-0.019194357
92	0xbd83cc9c	-0.064355105
93	0xbdd6af23	-0.104826234
94	0xbe29cb4c	-0.16581458
95	0xbd65e20f	-0.05612379
96	0xbeb530e6	-0.3538887
97	0xbde664b2	-0.11249675
98	0xbc3a3a5b	-0.011366452
99	0xbea4ff58	-0.32226062
100	0x3e4296dd	0.19002862
101	0xbe582fae	-0.21111938
102	0x3e935427	0.2877514
103	0xbf016935	-0.5055116
104	0x3eda33c1	0.4261761
105	0x3e494c1c	0.1965794
106	0x3bf5db36	0.0075029386
107	0x3eae3b8e	0.34029812
108	0x3e181d58	0.14854944
109	0xbb9284a2	-0.0044713775
110	0x3ca6a91c	0.02034431
111	0xbe815224	-0.2525798
112	0xbeceee17	-0.40416023
113	0xbdb89fec	-0.09014878
114	0x3d06c180	0.03289938
115	0xbebd1d09	-0.36936215
116	0xbe8ee0a0	-0.2790575
117	0xbdc94e36	-0.09829371
118	0xbed5529c	-0.41664588
119	0x3e885362	0.26626116
120	0x3ebeadc6	0.37241954
121	0x3e1c743f	0.1527872
122	0x3f0795c5	0.52962905
123	0x3da18d4e	0.0788828
124	0xbe6776d5	-0.22603925
125	0xbec3127e	-0.38100046
126	0xbe9af693	-0.30266246
127	0xbd9a0839	-0.075210996
128	0xbd47defa	-0.04879663
129	0x3c6f76fe	0.014615772
130	0x3db906b6	0.09034483
131	0xbd81946c	-0.06327137
132	0x3be83613	0.0070865243
133	0x3e4d7b21	0.20066501
134	0xbe30b2e0	-0.17255735
135	0x3ea6af32	0.32555538
136	0xbef26075	-0.47339216
137	0x3e23f266	0.16010436
138	0xbe5abce2	-0.21361116
139	0x3dfeb337	0.12436526
140	0xbe3ade97	-0.18248974
141	0xbe26fadb	-0.16306631
142	0xbee6a35c	-0.45046508
143	0x3e40a6e1	0.18813659
144	0xbd4500b4	-0.048096374
145	0xbe28d726	-0.16488323
146	0x3e241903	0.16025166
147	0xbd292d83	-0.04130317
148	0xbcb7bf4f	-0.02243009
149	0xbdfa5881	-0.12223912
150	0xbe7f20a1	-0.2491479
151	0xbe274088	-0.1633321
152	0xbf1641c5	-0.58694106
153	0xbef910de	-0.4864568
154	0x3ee17473	0.44034156
155	0x3e9eec73	0.3103977
156	0xbdbe26e3	-0.09284761
157	0xbe0e331a	-0.13886681
158	0x3eb1a2d7	0.3469455
159	0x3dd16135	0.10223619
160	0xbd250114	-0.04028423
161	0x3e89b50a	0.26895934
162	0xbe8474c5	-0.25870338
163	0x3d33c1c5	0.043885965
164	0x3ef496cd	0.47771302
165	0xbe8c7d8c	-0.27439535
166	0x3ecc9d1b	0.39963612
167	0xbea25f3f	-0.31713292
168	0x3eceafd2	0.40368515
169	0xbe140b85	-0.1445752
170	0x3eb78bbf	0.35848805
171	0x3cb530c5	0.022117982
172	0x3e422e61	0.18963005
173	0x3e5d0172	0.21582583
174	0xbd0209f2	-0.031747766
175	0x3e49b162	0.19696572
176	0xbe70e917	-0.23526417
177	0xbebf624f	-0.3737969
178	0x3e4e6fc1	0.20159818
179	0x3d0b7ed8	0.034056515
180	0x3ed6c9d3	0.41950855
181	0x3ca74106	0.020416748
182	0x3e29d3e5	0.16584738
183	0x3c82d198	0.015969083
184	0xbd6de9a6	-0.058084153
185	0x3e6638dc	0.22482628
186	0xbe0ca2e5	-0.13734014
187	0xbec35103	-0.38147745
188	0xbc173e21	-0.009231121
189	0x3ed9cce3	0.4253913
190	0x3ec370f4	0.38172114
191	0xbe56eff3	-0.20989971
192	0xbf2d67f1	-0.67736727
193	0xbc9af28f	-0.01891449
194	0xbe73729a	-0.23774186
195	0x3d01653f	0.031590696
196	0xbea3fbd4	-0.32028067
197	0xbeb7b4b2	-0.35880047
198	0xbde0a96d	-0.109698154
199	0x3e129ebb	0.14318363
200	0xbe22540f	-0.15852378
201	0xbb8aac88	-0.004231993
202	0xbf476b39	-0.77897984
203	0xbe708a32	-0.23490217
204	0xbdcc63fd	-0.09980009
205	0x3e951a76	0.2912175
206	0xbe4f8913	-0.20267133
207	0x3e42e880	0.19034004
208	0x3d0e1cb1	0.03469533
209	0x3ec5a609	0.38603237
210	0x3e539e15	0.20665772
211	0x3c1d8083	0.009613159
212	0xbe640d0a	-0.22270599
213	0x3b853c53	0.004066029
214	0x3e0bb2d7	0.1364244
215	0x3edbe5cd	0.42948762
216	0xbd4e4d33	-0.05036659
217	0xbe1a94cb	-0.15095823
218	0xbbb0b8da	-0.00539313
219	0xbe8ecff6	-0.27893037
220	0x3e94fef4	0.29100764
221	0xbe0707ca	-0.13186565
222	0x3de87523	0.11350467
223	0xbc85c70c	-0.016330265
224	0xbe780569	-0.24220814
225	0xbc7a5d30	-0.015281007
226	0x3ed4699b	0.4148682
227	0xbcb8c384	-0.022554167
228	0xbe86381a	-0.26214677
229	0xbd21a38c	-0.03946261
230	0xbd87aa2d	-0.06624255
231	0xbd4a2f20	-0.04936135
232	0xbec7f7f2	-0.39056355
233	0x3ee30eee	0.44347328
234	0xbd3d4c14	-0.046215132
235	0xbe38cc8f	-0.18046783
236	0x3ece3432	0.40274197
237	0x3dd419a9	0.10356457
238	0xbd0f9516	-0.03505429
239	0x3dd69908	0.10478407
240	0x3d47be78	0.04876563
241	0xbe09373f	-0.13399981
242	0xbc786d24	-0.01516274
243	0x3e766832	0.24063185
244	0xbe1540b5	-0.14575465
245	0xbf09ade9	-0.5378099
246	0x3e8adf10	0.27123308
247	0x3e294b37	0.16532598
248	0x3d013312	0.031542845
249	0xbf027c51	-0.5097094
250	0x3f15c865	0.585089
251	0xbc43e263	-0.01195583
252	0xbeadbeb8	-0.3393457
253	0xbda8dc26	-0.08245115
254	0xbea8efb9	-0.32995394
255	0xbd808777	-0.06275838

linear2.bias f4 [3]
0	0x3e7acac2	0.24491408
1	0x3dbd9137	0.09256213
2	0x3dc5a517	0.09650629
