model/model.pth (torch, 16787 bytes, 4 tensors)

linear1.weight f4 [256, 11]
000000 bd 61 7b bd 88 28 c6 be ef e9 6e be 6c e9 8f 3e
       -0.061372507 -0.38702798 -0.23331426 0.28107774
000010 6a 91 83 3e a9 d5 d4 be 5d 5a c0 be 60 a4 a0 bc
       0.2569688 -0.4156926 -0.37568942 -0.01960963
000020 db e0 7b 3a 2b 94 30 bf 12 47 35 bf d0 dd c1 be
       0.0009608396 -0.68976086 -0.7081157 -0.37864542
000030 ef c2 b1 be c1 dc ef 3e 50 1b ec 3d dd 9c 97 be
       -0.34719035 0.4684811 0.11528647 -0.29611865
000040 a7 61 6c 3e 30 16 eb bd e3 c2 0d 3d 75 03 17 be
       0.23084126 -0.11478841 0.034609687 -0.14747413
000050 cc 72 09 3e 33 6a 9f be d3 cd 93 be fc 05 98 3c
       0.13422698 -0.3113571 -0.2886797 0.018557541
000060 14 2a 02 3f 97 48 41 3e 0d 07 61 be 5c e9 f8 3c
       0.50845456 0.18875347 -0.21975346 0.030384712
000070 f0 e3 63 be 72 ea 3c be 3f 45 a8 3e 74 d9 36 3d
       -0.2225492 -0.18448809 0.3286533 0.044640973
000080 5f c3 be 3e 96 73 cb 3e 69 d1 16 be f4 3b 48 3e
       0.3725843 0.39736623 -0.14728321 0.1955412
000090 60 bc 5f be b9 9f 89 be 77 75 81 3e 13 c3 66 3e
       -0.21849203 -0.2687967 0.2528493 0.22535352
0000a0 99 28 65 3e b3 dd 76 3e 10 91 7b be d9 42 5f be
       0.22378768 0.24108009 -0.24567056 -0.21802844
0000b0 0b 72 42 be 51 c9 62 be c6 67 e1 3e 2c be 3a 3e
       -0.18988816 -0.22147109 0.44024485 0.18236607
0000c0 ba cc 27 3e 52 85 ed 3e e1 45 93 be 0a 88 c6 be
       0.1638669 0.46390778 -0.2876425 -0.38775665
0000d0 6c 42 54 3e 2c b5 81 bd ce 12 bc be 32 12 b6 bd
       0.20728463 -0.06333384 -0.36733097 -0.08890189
0000e0 d1 9a fe 3e b5 9a 87 be ec 72 9c be 31 6d d2 bd
       0.4972749 -0.2648522 -0.30556428 -0.10274733
0000f0 25 f3 6a be 81 53 6e bc c7 6c e6 3e be 0b 91 3e
       -0.22944315 -0.014546276 0.45004866 0.2832927
000100 bd 66 c8 3e dd b1 f6 3d c6 55 5f 3e 6f 5f aa be
       0.39140883 0.120456435 0.21810064 -0.33275935
000110 8b a9 c6 be 4b d4 bd 3e af fb c9 bd 94 32 1c 3d
       -0.38801226 0.3707603 -0.09862458 0.038134173
000120 f2 3e 99 3d 57 15 e8 bd cd 6c b7 3e fe 86 12 3e
       0.07482709 -0.11332195 0.35825196 0.14309308
000130 b8 da 0c 3e 69 a4 95 3e 7a 23 05 3f a6 01 97 3e
       0.1375531 0.29226997 0.5200726 0.29493445
000140 e9 b8 4f be 45 c0 90 3d b3 38 ac bd 0d 13 b6 3d
       -0.20285381 0.070679225 -0.08409252 0.088903524
000150 c8 30 14 3f a4 c4 c2 3e ea 15 fc 3e 8f f9 82 3e
       0.57886934 0.3804065 0.4923547 0.25581023
000160 15 00 ec 3d a3 de 03 bf e8 63 28 3f 07 5b 63 be
       0.11523453 -0.5151159 0.65777445 -0.22202693
000170 cd 32 8c 3e 87 98 ef bd 6e 40 83 bd f7 5c 7c 3e
       0.27382508 -0.11699014 -0.06408773 0.24644838
000180 38 e4 6b be 4e b6 03 3e 00 a0 42 3e 92 fe aa bd
       -0.23036277 0.12862512 0.19006348 -0.08349337
000190 52 59 04 3f 28 61 02 be 56 00 91 be 65 c3 6b be
       0.5169879 -0.12732375 -0.2832057 -0.23023756
0001a0 39 fa af 3d cd e3 20 be 57 5e ca bd 46 05 a9 bd
       0.08592648 -0.15711899 -0.09881275 -0.08252959
0001b0 0e 82 6b 3e af a2 87 be a7 1d a0 be a6 5c 59 3d
       0.2299883 -0.26491305 -0.31272623 0.053066872
0001c0 e7 00 95 3e 59 ae 00 bf b4 55 5e be 65 26 c8 3e
       0.2910225 -0.50266033 -0.2171238 0.39091793
0001d0 52 d6 c1 3e c3 40 b1 be c5 ec 9a be ce 08 97 3e
       0.37858826 -0.34619722 -0.30258766 0.29498905
0001e0 f9 cd 13 3e d9 89 80 3e de d3 a5 3e 52 a2 84 bd
       0.14434041 0.2510517 0.32388204 -0.06476273
0001f0 19 2e 62 bb 32 8d 4c 3d 5d 47 a9 bd a5 33 3f be
       -0.003451234 0.04993934 -0.082655646 -0.18672045
000200 af e6 9e 3e b4 b5 34 3e 89 ac 82 bd 27 ec 6f 3a
       0.31035373 0.17647439 -0.06380565 0.0009152316
000210 ef b5 86 3c 74 fd 4a be 33 ab 23 3e 7c 5c d3 3b
       0.016444175 -0.19823247 0.15983276 0.006450234
000220 2b 79 84 bc 84 32 99 be 74 3a cb bd cf 87 6a bc
       -0.016171059 -0.29921353 -0.099232584 -0.014314606
000230 ee 46 39 be 5b 4a 14 bc ee a6 84 be 14 9e 5f 3e
       -0.18093464 -0.009050931 -0.25908607 0.21837646
000240 ec 5e b2 3d 28 5e 65 3e dd 49 be 3c 00 0b 77 be
       0.08709511 0.22399199 0.02322858 -0.2412529
000250 5b 00 48 bd 72 a6 0a be a0 97 5c be 32 a7 9a 3d
       -0.048828464 -0.13540056 -0.21542215 0.07551421
000260 20 69 c7 be bc 12 bb bd 44 57 14 3e 33 19 23 3e
       -0.38947392 -0.09134433 0.14486414 0.15927581
000270 d1 7d d9 bc 34 42 b6 be a6 58 98 3e 7b 54 bf be
       -0.026549252 -0.35597384 0.29755133 -0.3736914
000280 e3 21 fc 3c dc 23 73 3e 11 a9 b9 be 0e 20 92 3e
       0.030777877 0.23744148 -0.362618 0.2854008
000290 99 75 08 be 1a e8 37 3e b2 26 8d be 0a 45 99 3e
       -0.1332611 0.17959633 -0.27568585 0.29935485
0002a0 cf 9a 9a 3e 76 d5 5c be 05 b3 97 be 02 1b ab 3d
       0.30196235 -0.21565804 -0.2962877 0.08354761
0002b0 e9 b5 b6 be dc 9b 07 be ca 31 6e 3e 8a c2 d8 be
       -0.3568566 -0.1324305 0.2326118 -0.42335922
0002c0 2e 6c db be 8e aa 8b bd de 12 ce 3e 8f c6 2d 3e
       -0.42855972 -0.0681964 0.4024877 0.16970275
0002d0 67 44 a7 bd 86 a8 7a 3b ab c8 25 bd 33 05 9f 3c
       -0.081673436 0.003824742 -0.040474575 0.019411659
0002e0 79 4e dc 3c d0 77 3c be 1c 87 a5 3e 9f 66 9a 3e
       0.026892887 -0.1840508 0.32329643 0.3015642
0002f0 5d 64 ac 3d dd da 74 3b 3e 3e 20 3e a4 66 3b 3e
       0.0841758 0.0037361898 0.15648744 0.18300873
000300 7f 65 7f 3d 70 bf 9b bd 04 29 5d 3e 44 4c 5e 3e
       0.062352654 -0.07604873 0.21597677 0.2170878
000310 f7 ac 7d 3e b5 3a 47 3e d7 bc df 3e f2 df d4 3e
       0.24773012 0.19455989 0.4369876 0.41577107
000320 91 39 e2 be a8 d9 6c 3e 0e d0 14 3e 5d 3e 72 3e
       -0.44184545 0.23129904 0.14532492 0.23656602
000330 93 10 5a 3d 26 f0 84 3e ed 5c 7d 3e c7 ea 89 bc
       0.053238463 0.2596447 0.2474248 -0.016835583
000340 2c 64 07 3e 5b d1 0a 3d 0d 2d fe 3d 41 62 8a be
       0.13221806 0.033891063 0.124109365 -0.27028087
000350 38 b3 51 3e 40 7b 60 bc f4 4d 80 3d 96 5e 22 3e
       0.20478523 -0.01370126 0.062648684 0.15856394
000360 1c 9d 45 be dc b6 92 bd aa 45 1a be ca 75 8a be
       -0.19298214 -0.07163784 -0.15065637 -0.2704299
000370 06 7a 4c be 78 4c b4 bd 44 88 53 be 84 69 8a 3d
       -0.19968423 -0.08803648 -0.2065745 0.06758407
000380 a8 81 8e be a0 4c 1d 3d 80 d7 a0 3b 62 b5 2c 3e
       -0.27833295 0.038403153 0.004908502 0.16866067
000390 d4 c8 5a 3e e4 da 86 be c7 10 68 be b8 b6 01 bd
       0.21365672 -0.26338875 -0.2266265 -0.031668395
0003a0 17 d2 f6 bd 32 59 8a 3d ef cf b5 be 39 f4 ce 3e
       -0.1205179 0.06755294 -0.35510203 0.40420702
0003b0 10 b1 c8 be 82 81 bd be 35 8a cf be 8e 2e b2 3e
       -0.39197588 -0.3701287 -0.4053513 0.34801143
0003c0 39 cc d8 be 0c ba ec be 13 64 8a 3e 01 73 80 be
       -0.4234331 -0.46235693 0.27029476 -0.2508774
0003d0 12 78 2e 3f 44 e6 e9 3c 06 25 23 3c af f6 6c bd
       0.6815196 0.028552182 0.009957558 -0.057852443
0003e0 d0 79 bd 3d 48 f8 c9 3d 8b f3 16 bd ea 94 1f be
       0.092517495 0.09861809 -0.036853354 -0.1558415
0003f0 f6 d9 51 bc 7a b7 f6 be 7c 84 c5 3e a4 4e 85 be
       -0.012808314 -0.48186857 0.3857764 -0.2603656

linear1.bias f4 [256]
000000 c8 64 c7 3e d1 28 4b 3e 5e d6 e2 bd ae f9 12 bd
       0.38944077 0.19839789 -0.110760435 -0.035882644
000010 94 bb 09 3d d8 8e 70 bd f7 91 41 be bb b2 b6 be
       0.033626154 -0.058729976 -0.18903337 -0.35683236
000020 e4 c2 d2 39 ed c5 8f bb 3c 15 94 bd 33 c6 ff 3d
       0.00040199526 -0.0043876083 -0.07230613 0.124889754
000030 35 a5 9f be 6e 41 ab 3d 56 10 d0 3d b3 ea 19 3d
       -0.3118073 0.08362089 0.10159366 0.037577342
000040 9f 26 80 bc d5 64 0c be 26 e8 2e be 6a ec 94 be
       -0.015643416 -0.1371034 -0.17080745 -0.2908662
000050 78 f4 98 be 41 26 8c bc c1 0e 4f 3e a5 29 9e 3e
       -0.29874015 -0.017108085 0.20220472 0.30891147
000060 92 b6 83 bc f7 a8 37 3e 28 26 9d 3e 83 17 64 bc
       -0.016078267 0.17935549 0.30693173 -0.013921621
000070 09 2d 4d bc 08 03 bf bd fb 4f 57 be ae 56 80 be
       -0.012522944 -0.0932675 -0.21026604 -0.2506613
000080 56 f5 6c 3c 85 5a 14 be 68 a4 14 bd c7 1e 35 3e
       0.0144627895 -0.14487655 -0.036289603 0.17687522
000090 7d cd c9 3e 00 06 d0 3d 8d 60 c4 3d 27 c1 d8 bd
       0.39414588 0.101573944 0.09588728 -0.10583716
0000a0 35 ca 02 3e 7e 2a 8d be cf ed 07 3d eb 4b 20 be
       0.12772448 -0.2757148 0.033185776 -0.1565396
0000b0 19 35 44 3e b0 6c 6c bd d9 c3 da 3a f8 c5 85 3e
       0.1916088 -0.05772084 0.0016690447 0.261276
0000c0 fa 5e 16 bd 3b fc 0b be 65 84 ef 3d 28 ee d7 3d
       -0.03671167 -0.13670437 0.11695174 0.105434716
0000d0 0d f8 c5 3c e5 34 f4 bd ba b4 ca 3d ee 19 88 3c
       0.024166131 -0.11924151 0.09897752 0.016613927
0000e0 ef 3e 89 3e ed a5 11 be 43 ad 3a be 4c 85 dd bd
       0.26805827 -0.14223452 -0.18230157 -0.1081644
0000f0 5e f9 f8 bc aa 6b 9f bd 66 e3 21 be 9a 73 bb bd
       -0.030392345 -0.07784207 -0.15809402 -0.091529086
000100 14 ef ef bd 9c 5d a8 3e 58 36 e4 bc a0 3c 53 3e
       -0.117155224 0.32883918 -0.027857944 0.20628595
000110 5d 60 cc 3e 48 13 c8 3d 7d de cb 3d 3e ca 0f be
       0.3991727 0.097693026 0.09954546 -0.14041993
000120 33 54 b1 bd 54 b0 8b 3e d2 e3 95 bb b0 c4 6e 3d
       -0.08658638 0.27282965 -0.0045742774 0.058293045
000130 14 ea 8f be ac 84 3b be be ac 6d be f9 f8 5b bd
       -0.28108275 -0.18312329 -0.23210427 -0.053704236
000140 f3 7b 91 be b1 87 d6 3d a1 95 10 3d c5 a2 5b 3e
       -0.28414878 0.104751 0.035298947 0.2144881
000150 bf 71 90 3a 06 76 2c 3e 74 6a 44 bd a7 80 91 be
       0.0011020227 0.16841897 -0.047953084 -0.28418466
000160 b9 9f 6d be 8c a4 0c bd 6e 55 c6 bd 96 a3 e1 bb
       -0.2320546 -0.03433661 -0.09684263 -0.006885956
000170 61 26 5a 3d ff 41 1b be 47 1e 3f 3e 2e 45 13 3e
       0.053259257 -0.15161894 0.18663894 0.14381859
000180 f3 37 b9 3d c5 12 82 be fb 93 7a 3e cc 2f 10 3e
       0.090438746 -0.25404945 0.24470513 0.14080733
000190 04 35 d0 bd bb 49 c6 bd 48 ac 87 be 7e 07 b6 bd
       -0.10166362 -0.09682032 -0.26498628 -0.08888148
0001a0 dc 2c 8f be 8d a5 f5 3c f7 89 d6 bc 23 3a c5 bd
       -0.27963912 0.029986167 -0.026188834 -0.09630229
0001b0 65 87 ac bd 93 aa 2d be 7c c3 1f bd 50 8b 8b 3d
       -0.08424262 -0.169596 -0.039004788 0.06813681
0001c0 ac d9 84 3e d0 c7 7d 3d 02 7c 13 3f 94 a1 c2 bd
       0.2594732 0.061958134 0.57611096 -0.09503475
0001d0 df 89 60 be 99 7d 6c 3d 68 63 49 39 28 d1 04 3d
       -0.21927594 0.057736967 0.00019205885 0.03242603
0001e0 76 68 6b 3d 51 ba a6 bd f7 c6 96 be f3 c2 1c be
       0.05747267 -0.08141006 -0.29448673 -0.15308742
0001f0 a2 69 89 3e 4d b5 d5 3d 29 60 52 be 8e b4 a2 3e
       0.26838404 0.10434971 -0.20544495 0.31778377
000200 81 a4 36 3d 8f 04 4b be 1a 82 d3 bd f0 f8 eb 3d
       0.044590477 -0.19825958 -0.10327549 0.115220904
000210 a1 4c 62 3e 34 6d 42 be 28 44 81 be dc da 38 bd
       0.22099544 -0.1898697 -0.25247312 -0.045130596
000220 fc ac a2 3e 9d c9 1e be d2 73 23 be 9b 39 fa bc
       0.31772602 -0.15506597 -0.1596215 -0.030545047
000230 bf d5 2e bd f5 71 f3 bd 6f d3 2f bd 9b 2f ae be
       -0.042684313 -0.1188697 -0.04292625 -0.34020695
000240 9d c7 8f be 70 08 8c be 25 a5 74 bc c9 ec 5f 3e
       -0.2808198 -0.27350187 -0.014931952 0.2186767
000250 41 1c c5 bd ba 93 06 3b 0e 3e 2a 3e 51 ca 33 3e
       -0.0962453 0.002053483 0.16625234 0.17557646
000260 97 1e 32 3d ce e1 8b bd cd 2d 05 3d f2 9b 1b 3d
       0.043486204 -0.06830178 0.032514382 0.037990518
000270 26 0d a1 bd a0 a6 cb bd 99 be 4e bd d1 0d 93 bb
       -0.07863836 -0.099438906 -0.050474737 -0.004487731
000280 77 06 93 3e db f4 e5 3d 2b b0 43 3e ea ca a7 bc
       0.2871587 0.11228343 0.19110171 -0.0204825
000290 89 59 82 bd f1 6d 19 3e f0 b2 4e 3d 42 70 84 be
       -0.06364734 0.14983346 0.050463617 -0.25866896
0002a0 76 3b 23 3a 43 dd 1f bc 75 55 8f 3e 40 1c 2d bd
       0.0006226817 -0.009757343 0.27994886 -0.04226327
0002b0 83 b3 72 be 1e 3d e2 bd 08 02 3d bd 4e 9b 6c 3d
       -0.23701291 -0.110468134 -0.046144515 0.057765298
0002c0 eb 91 e9 bd f7 22 dc 3d 7d c9 91 be 52 b6 ce 3e
       -0.11404785 0.107488565 -0.28474036 0.40373474
0002d0 5f f6 31 be 54 6b f3 3d e4 39 1a 3e 22 dd 3d bd
       -0.1737914 0.118857056 0.15061146 -0.046353467
0002e0 49 98 9b be 4c 3b 6a 3b d2 fb 2f 3e 54 d5 b0 bd
       -0.30389622 0.003574091 0.17185906 -0.08634439
0002f0 78 d1 71 be 91 03 02 be e3 4a 33 be 30 12 66 be
       -0.23615062 -0.12696673 -0.17509036 -0.22467875
000300 80 99 74 be e7 19 9c bd 6b 37 46 3e d4 19 bd be
       -0.2388668 -0.07622128 0.19357078 -0.36933768
000310 a4 02 22 bb 86 f9 88 bd 14 a0 e9 bd 8d c4 2e be
       -0.0024720812 -0.06688218 -0.114074856 -0.17067166
000320 32 16 4f 3d 88 a7 59 bd 4c 55 90 3e 30 07 04 bd
       0.050558276 -0.053138286 0.28190076 -0.032233417
000330 f1 44 9c 3e 23 b0 b4 3d df 00 17 bc a3 2a 00 be
       0.30521348 0.08822658 -0.009216516 -0.12516265
000340 67 ec 69 3e ee d6 8c bd 6a 67 76 bb 2b 96 44 be
       0.22844087 -0.06876932 -0.003759826 -0.1919791
000350 3a ea a7 bc 67 d7 6a be d8 96 66 bd ae a8 7d be
       -0.02049743 -0.22933732 -0.0562962 -0.24771377
000360 c2 09 f3 bc fc f3 8f 3d 98 ee 86 be e1 dc 2a be
       -0.029667739 0.07028958 -0.26353908 -0.16685821
000370 ff e4 2c 3d de 9b ba 3c 2e 07 f6 3c 86 07 03 be
       0.042210575 0.022779401 0.03003272 -0.12795839
000380 61 46 f7 bd 12 51 3d be 60 ee 52 be 21 3a fb 3c
       -0.120739706 -0.18487957 -0.20598745 0.030667366
000390 71 d8 3a be 7d c0 31 bd 69 97 08 be cf 78 e0 3c
       -0.18246628 -0.04339646 -0.13339008 0.027401356
0003a0 ad 04 fc 3d 8a ff ab be 53 3a 2c bd 22 2f 8c 3e
       0.12305579 -0.33593398 -0.04204781 0.2737971
0003b0 24 2d fb 3d c4 62 69 be e4 00 f6 3c e9 0e 87 3d
       0.12264469 -0.22791582 0.030029722 0.06594641
0003c0 70 0c 10 be f2 db 25 be 32 fd 6b 3c de 9d 3a be
       -0.14067245 -0.16197184 0.014403628 -0.18224284
0003d0 7e c7 0b be aa 19 c1 3d 35 9e 67 3d 65 d5 4b be
       -0.13650319 0.09428723 0.056547362 -0.19905622
0003e0 63 f7 75 3e be f3 9b bc a7 1a 0a 3d 0a 2f 98 bc
       0.24020152 -0.019037124 0.033716824 -0.018577117
0003f0 c2 77 b3 bb f7 11 2c be 15 c7 46 be b1 18 82 3e
       -0.0054769227 -0.16803728 -0.19411881 0.25409463

linear2.weight f4 [3, 256]
000000 5b d0 e7 3e 8a b3 4c 3e 10 8b 65 be 7f 29 c0 be
       0.4527615 0.19990364 -0.2241633 -0.3753166
000010 40 bf 80 3e 87 c0 8e be c9 63 9e be 90 b2 ae be
       0.25145912 -0.27881262 -0.30935505 -0.34120607
000020 41 01 1e be e6 7b 5e 3e c1 20 cb 3e 0f d1 1f bd
       -0.15430166 0.21726951 0.39673427 -0.039017733
000030 05 09 65 bd 3f 51 20 be 34 a7 ad be b8 66 a0 bd
       -0.055916805 -0.15655993 -0.33916628 -0.07832092
000040 cc f2 a2 3c ba 0b 93 bd c8 08 09 be 36 5e 50 3c
       0.019891165 -0.07179971 -0.13382256 0.012717774
000050 e8 42 4b bc e1 9b bd 3e af cc 37 3d 1b 38 49 3e
       -0.012406088 0.3703299 0.044872936 0.19650309
000060 60 d5 d0 3e 50 64 3d 3e 34 c5 a5 3e 24 b6 98 be
       0.40787792 0.18495297 0.32377017 -0.29826462
000070 93 f7 0f be 77 28 9e 3c 6a 90 2b 3d 35 99 b6 be
       -0.14059286 0.019306405 0.04188577 -0.35663763
000080 f7 45 33 3e e6 4f 03 be 23 7d 2d be 37 3f 57 3e
       0.17507158 -0.12823448 -0.16942267 0.21020208
000090 f1 03 74 3e 87 9d 1c 3e c5 d4 72 3d 00 fd 11 be
       0.23829629 0.15294467 0.059284944 -0.14256668
0000a0 6a 15 ca 3d 3c 54 6a bd bb 97 d0 bb 01 aa 0d bf
       0.09867366 -0.05720924 -0.006365744 -0.5533753
0000b0 33 9d 01 3e 90 09 8b 3e e1 cf 09 bf 8d 3c 4a 3d
       0.12657623 0.27155733 -0.53832823 0.049374152
0000c0 02 ae 8e be d0 a5 8f be c8 69 94 bd 0b a0 b2 3e
       -0.27867132 -0.28056192 -0.07246739 0.34887728
0000d0 ef 5a ce 3d e8 28 b5 3c 46 f1 6f be be 0f 03 be
       0.10075938 0.022114232 -0.23431882 -0.12798974
0000e0 88 5c 34 3e 27 55 dd 3c 87 5a 44 be fd 39 0a 3d
       0.17613423 0.027018143 -0.19175158 0.03374671
0000f0 9f 34 c2 3b db 99 2e 3e 2d 0b da be da 00 55 bd
       0.005926683 0.17050879 -0.4258665 -0.052002765
000100 a4 d0 14 be 01 0a 24 3e 1e fa 31 3e 63 48 f8 3c
       -0.14532715 0.16019441 0.17380568 0.030307954
000110 1a 1a 45 3e 84 a7 6c be ac ec 63 3e cd 10 ad 3e
       0.19248238 -0.23110777 0.22258252 0.3380188
000120 8f 5f 0d 3e 8a bc 2a 3e fd 0d 98 bd 26 65 40 3c
       0.13805984 0.16673484 -0.07424543 0.011742866
000130 6c 29 47 be ff 5f 7a be b6 a4 35 3d ef 18 df 3d
       -0.19449395 -0.24450682 0.044346534 0.108934276
000140 df 9e ba be 8d df b3 bc 86 fc 01 bf b8 2f 0d 3e
       -0.36449334 -0.021957183 -0.50775945 0.13787735
000150 c4 40 78 3e 10 1c 10 3e a1 3d 9e 3e 67 59 d9 bb
       0.24243456 0.14073205 0.30906394 -0.006632972
000160 61 54 8f 3d 18 23 1d 3e a1 cb 25 3e 33 99 96 3e
       0.06998516 0.15345418 0.1619096 0.29413757
000170 24 c5 2d 3b 0e 21 e6 bd 37 fd 75 bc ba c9 9a 3e
       0.002651521 -0.112367734 -0.015013984 0.3023203
000180 cf 74 a5 3d 6d 51 b7 be 4e e6 92 3c 0f 2f 81 3e
       0.0807892 -0.3580431 0.017932083 0.25231215
000190 c8 b8 86 be 67 1c fb bd 32 6e 8d bc 59 36 c0 3d
       -0.26312852 -0.12261277 -0.01726446 0.09385366
0001a0 72 23 88 be 40 4d 03 bf ed f8 da ba b2 6d 71 3d
       -0.26589543 -0.5128975 -0.0016706266 0.058942504
0001b0 08 5f 90 bd 54 58 6e be 05 1a 0c 3e 3d 82 9b bd
       -0.07049376 -0.23275882 0.136818 -0.075932
0001c0 8e 6b 89 3d c4 d4 a8 bc 73 92 9c 3e 0c 38 b6 be
       0.067099676 -0.020609267 0.30580482 -0.35589635
0001d0 fe 6a 38 be c6 e0 bd bd fa 8c 80 3e 86 1b 6c bd
       -0.18009564 -0.09271388 0.25107557 -0.057643436
0001e0 36 4e 14 bf 19 d3 9d be 09 d8 61 be e4 0e 8c be
       -0.5793184 -0.30825117 -0.22055067 -0.2735511
0001f0 26 5f a9 3d 28 10 a7 3b b3 b7 4a 3d 95 e8 8e 3d
       0.08270101 0.0050983615 0.049491595 0.06977955
000200 13 36 89 be 69 fb de 3b 72 7b 04 bf 2a 92 aa 3d
       -0.26799068 0.006804873 -0.5175086 0.0832866
000210 93 53 fb bc 2d ef aa be 66 d7 b6 be d5 b8 0a be
       -0.0306795 -0.33385602 -0.3571121 -0.1354707
000220 01 55 e4 3d e4 03 65 be 76 b1 e5 be a6 e1 d0 3e
       0.11149026 -0.22364765 -0.44861954 0.40797156
000230 4d 9d 1e be 68 9b 26 be 80 f2 17 be 38 1c 78 bd
       -0.15489693 -0.1627022 -0.148386 -0.060573786
000240 3e 14 96 3e 00 22 fe 3a fa a0 98 3e dd c8 84 3e
       0.2931232 0.0019388795 0.29810315 0.25934497
000250 56 62 39 bd c9 3f 3e be 6c 86 8b 3e 0b 7d 6f bc
       -0.045259796 -0.1857902 0.27250993 -0.014617215
000260 d8 44 a9 3e e0 9a d6 bd 28 7d 2b be 19 d9 81 be
       0.33060336 -0.10478759 -0.16746962 -0.25360945
000270 0e 4a b8 bd ea 63 fb bc b4 85 73 3e 5c ac 0c 3e
       -0.089985 -0.030687291 0.23781472 0.13737625
000280 14 a0 5a 3e 8d 63 50 be 02 38 2d 3e 92 d8 b7 bd
       0.21350127 -0.20350476 0.16915897 -0.089768544
000290 45 de 4e be 90 bf b8 bd 47 37 94 3e cb 4d 42 be
       -0.20201977 -0.09020913 0.28948423 -0.18974988
0002a0 a5 99 15 bd a4 40 a0 bd 74 56 91 3e 01 b2 11 3e
       -0.03652348 -0.07824829 0.2838627 0.1422806
0002b0 a7 d7 39 be 0d b6 71 be bc 62 8d 3e eb 9c 05 bb
       -0.18148671 -0.23604603 0.2761439 -0.002038772
0002c0 69 e7 95 3e 31 04 09 bd 1b dc b1 be f2 f1 b5 3e
       0.29278114 -0.033451263 -0.3473824 0.35536152
0002d0 2e 6f a5 be fc 70 0f 3d 22 7f e2 bc fe 74 dd bc
       -0.32311386 0.03501986 -0.027648512 -0.027033325
0002e0 f8 12 00 3d 62 8d 49 bc f0 79 2e bc 04 09 95 3e
       0.03126809 -0.012301775 -0.010649189 0.2910844
0002f0 79 8e 8e bc 3c 2e a1 3d 6c f0 7e be a2 6a 69 3d
       -0.01740192 0.07870147 -0.24896401 0.05698646
000300 78 7d 50 bc 4a c4 f8 be 4b 5a f1 3d 6f eb bb be
       -0.012725227 -0.48587257 0.117848 -0.3670306
000310 f3 4b e8 3a 6f 3e fc be 37 f2 66 be f2 24 c8 bd
       0.001772283 -0.49266383 -0.22553335 -0.09772672
000320 cd 90 19 3e 86 7a a8 bd 6b 39 24 3e 36 c3 8e 3e
       0.14996643 -0.082264945 0.16037528 0.2788331
000330 b3 06 82 3e dc 0c ab be fe d8 39 bd 0f d0 56 be
       0.25395736 -0.33408248 -0.045372956 -0.20977806
000340 15 ab 5b 3e bd 91 d4 bd 94 32 85 be a2 4a 0a be
       0.21451981 -0.1037936 -0.2601515 -0.13505033
000350 db 54 4d bc 59 9f 78 3e 19 74 1a 3d ef 09 b1 be
       -0.012532438 0.24279536 0.037708376 -0.3457789
000360 66 c0 91 be 2b 00 7b bd f1 a7 9c bd f1 6c 06 3d
       -0.284671 -0.061279457 -0.0764922 0.03281874
000370 26 c7 50 bf 01 d6 c4 bd a9 1a 78 be 5a 16 c0 3d
       -0.81553876 -0.096111305 -0.2422892 0.09379263
000380 8e 47 c6 bd 4f 41 cd 3d 56 0d 57 bd 38 0c 86 bc
       -0.09681617 0.10022222 -0.052502953 -0.016363248
000390 76 8e 1c be 34 00 7f 3a 42 76 e5 3d 93 f3 45 be
       -0.1528872 0.00097275083 0.112041965 -0.19331197
0003a0 f6 15 44 3e 3a f4 ed bb 5c 87 7f 3e 6d 05 75 3e
       0.19149002 -0.00726178 0.24953979 0.23927851
0003b0 dc 0f ca bb d4 67 e3 bd 3a 42 11 3e f1 d3 43 3e
       -0.0061664414 -0.11103788 0.1418542 0.19123818
0003c0 fe 59 ac be 6a c7 6d be 5b 64 e5 bd 17 25 4d be
       -0.3366241 -0.23220602 -0.11200782 -0.2003368
0003d0 48 71 0a bf 36 62 c3 bd f3 ab 1e be ea 4c 65 3e
       -0.54079103 -0.095402166 -0.15495281 0.22392622
0003e0 7f 74 24 3e 60 4a 10 be 10 c1 02 3d a7 f8 8c bd
       0.16060065 -0.14090872 0.0319224 -0.06883364
0003f0 5b ab 83 3e d6 e8 3a bd 4f 99 8c 3e 9f b6 73 3d
       0.2571667 -0.045632206 0.27460715 0.059500333

linear2.bias f4 [3]
000000 f7 dc f1 3d f7 ea a1 bc 83 2d ac 3c
       0.11809724 -0.01976536 0.021017795
